best_rnn_model.pt (torch, 511564 bytes, 12 tensors)

weight f4 [23, 400, 3]
0	0xbc25a3e3	-0.010109874
1	0x3d242b45	0.040080328
2	0x3c2ce6c1	0.010553063
3	0x3a124859	0.00055802386
4	0x3d400c65	0.04688682
5	0xbce1a60c	-0.027544998
6	0xbc3970b8	-0.011318378
7	0x3c8a8098	0.016907021
8	0xbc4248ce	-0.011858178
9	0xbcc94fd7	-0.024574203
10	0x3d3c0747	0.045905378
11	0xbc83068e	-0.015994336
12	0xbd0970b3	-0.033554744
13	0x3c0c49ec	0.008562546
14	0x3ccf5778	0.025310263
15	0xbd02855b	-0.03186546
16	0x3d0b015f	0.033936854
17	0xbbea4b5c	-0.007150097
18	0xbcf2a986	-0.02962185
19	0xbc1efb6e	-0.0097035
20	0x3bfee372	0.0077785784
21	0xbd3287ad	-0.04358642
22	0xbc3cd265	-0.011524771
23	0x3bff0cff	0.0077835317
24	0xbb2e71ab	-0.0026618044
25	0xb99593de	-0.00028529664
26	0xbc858231	-0.016297432
27	0xbb199270	-0.002343323
28	0x3c9a82c3	0.01886118
29	0x3c4738c4	0.01215953
30	0xbbf4b1a7	-0.007467467
31	0xbc7a914f	-0.015293433
32	0x3cee7b5d	0.029111559
33	0xbc0d88b1	-0.008638547
34	0x3cf73095	0.030174533
35	0x3bf7e4d4	0.0075651202
36	0xbd2fd815	-0.04293068
37	0x3b35094e	0.0027623954
38	0x3ccab07c	0.024742357
39	0xbc48b8ef	-0.012251123
40	0xbc85bb60	-0.016324699
41	0xbc77034b	-0.015076469
42	0xbd2f7f85	-0.04284622
43	0x3cca92f7	0.024728281
44	0x3c5b8a62	0.013399692
45	0xbd0812f8	-0.033221215
46	0x3cdb0d00	0.026739597
47	0xbce28d9e	-0.027655419
48	0x3cb238c8	0.021755591
49	0xbb7ee925	-0.003889629
50	0xbca37a74	-0.019955851
51	0x3c4382f9	0.011933082
52	0xbc521036	-0.012821248
53	0x3cdb3162	0.026756946
54	0xbc54e182	-0.012993218
55	0x3c33cfa9	0.010974803
56	0xbbe1c501	-0.00688994
57	0xbc18a781	-0.00931728
58	0x3cfe7ccc	0.031065367
59	0xbcc0b1c1	-0.02352226
60	0xbcef4959	-0.02920978
61	0x3bf3daf8	0.0074418746
62	0xbbf162f8	-0.0073665343
63	0x3cc4608c	0.023971818
64	0x3af45ae7	0.0018642814
65	0x3c8ab152	0.016930256
66	0xbcc4419d	-0.023957068
67	0xba29334b	-0.00064544816
68	0xbc3b9acb	-0.01145048
69	0x3c36d63b	0.011159475
70	0x3ca0f3db	0.01964753
71	0x3d1133a6	0.035449646
72	0xbc8547a6	-0.016269516
73	0x3c689d4d	0.01419766
74	0xbb2abb7f	-0.0026051698
75	0x3c80df23	0.0157314
76	0x3cc45ef8	0.023971066
77	0xbabf5b8a	-0.0014599424
78	0xbb86754a	-0.0041033374
79	0xbaf6dcda	-0.001883413
80	0x3b993d39	0.0046764878
81	0xbc385a8d	-0.011252058
82	0xbc4fbf4f	-0.012679889
83	0xbb9e0281	-0.004822076
84	0xbcdc6a96	-0.026906293
85	0xbc18d414	-0.009327907
86	0xbc2f8776	-0.010713449
87	0x3ca22297	0.019791884
88	0xbb9fb46b	-0.0048738024
89	0xbbd76034	-0.0065727476
90	0x3beb41a2	0.007179455
91	0x3c59cbff	0.013293265
92	0x3bcf15ec	0.006319752
93	0xbc59bd48	-0.013289757
94	0x3c494636	0.012284806
95	0xbc825a57	-0.015912218
96	0xbc927a77	-0.017880661
97	0xbbd9885e	-0.0066385707
98	0xbcb8dc57	-0.022566004
99	0xbc2686d1	-0.010163979
100	0xbc4dff12	-0.0125730205
101	0xbca6c7ea	-0.020358998
102	0xbb9dee45	-0.0048196637
103	0xbcf71f00	-0.03016615
104	0x3b983eeb	0.0046461723
105	0xbc87c568	-0.016573623
106	0xbd31a99b	-0.04337464
107	0xbd13d91d	-0.036095727
108	0x3c532198	0.012886427
109	0xbcfe653b	-0.03105413
110	0xb9a4dc54	-0.00031444675
111	0xbc0298d4	-0.007971007
112	0xbc6b04d1	-0.01434441
113	0xbd18656b	-0.037206095
114	0x3cbb511c	0.022865824
115	0xbbe7d9a1	-0.007075504
116	0xbc5146d9	-0.012773239
117	0xbc657692	-0.01400532
118	0xbd3ad67f	-0.045614716
119	0xbd166cde	-0.036724918
120	0xbc01d406	-0.0079240855
121	0xbc59df08	-0.013297804
122	0x3b8acae6	0.004235613
123	0x3acf852e	0.0015832537
124	0x3ba578e7	0.005049813
125	0xbc73763a	-0.01485973
126	0x3c08dc17	0.008353255
127	0xbba233a2	-0.0049500028
128	0xbbd910cd	-0.0066243173
129	0xbcaee98c	-0.021351598
130	0xbc8915ae	-0.01673397
131	0x3c2c34c6	0.010510629
132	0x3c17a551	0.009255723
133	0xbc63c723	-0.013902458
134	0xbc8e4b68	-0.01736994
135	0xbcadf08e	-0.02123287
136	0x3c6d4939	0.01448279
137	0xbc989fe4	-0.01863093
138	0x3b4f1358	0.0031597223
139	0xbce4904f	-0.027900843
140	0x3bf55442	0.007486851
141	0xbbd1833b	-0.0063938177
142	0xbb0dca33	-0.0021635413
143	0xbca8157e	-0.02051806
144	0xbaf407c0	-0.0018618032
145	0xbc880760	-0.01660508
146	0xbd231872	-0.039818235
147	0xbc7ee1a7	-0.015556729
148	0x3b5826cd	0.0032982111
149	0x3be9dc5b	0.007136864
150	0xbc9026aa	-0.017596561
151	0x3b8f6ecd	0.004377222
152	0x3ae3e04f	0.0017385575
153	0xbcbd70b6	-0.023125034
154	0x3c0895a1	0.008336456
155	0xbce5402e	-0.027984705
156	0x3cee9e8e	0.02912834
157	0xbc093df9	-0.008376592
158	0xbcc0167a	-0.023448218
159	0xbcadfca7	-0.021238638
160	0x3d181ea4	0.037138596
161	0xbd16a12a	-0.03677479
162	0x3c9130ea	0.01772352
163	0x3cd07a48	0.025448933
164	0x3bd07226	0.006361264
165	0x3c5d1139	0.013492876
166	0x3bad56c3	0.005289884
167	0xbc635e15	-0.013877411
168	0xbc32c10d	-0.010910285
169	0x3beeed68	0.0072914846
170	0x3bc488ee	0.0059977686
171	0x3c6a97f4	0.014318455
172	0x3c1e8d75	0.009677281
173	0xbbb23585	-0.005438509
174	0x3c96842c	0.018373571
175	0x3d5dee4e	0.054182343
176	0xbbe1447a	-0.006874618
177	0x3d333200	0.043748856
178	0x3df21c23	0.11821773
179	0x3d43b57d	0.047780503
180	0x3cf572ca	0.029961962
181	0x3dae7fd5	0.08520476
182	0x3bfa7c92	0.0076442445
183	0xbbbc19a4	-0.0057403613
184	0x3d48825d	0.04895245
185	0xbb31269e	-0.0027031074
186	0x3b816c6b	0.003949692
187	0x3d102ca1	0.03519881
188	0xbbfc5081	-0.0077000265
189	0x3cabb5f1	0.02096078
190	0x3d13c40d	0.03607564
191	0x3aa4ad9e	0.0012563949
192	0xbb9fbbd1	-0.0048746844
193	0x3c425f72	0.011863576
194	0x3c7e4af7	0.015520803
195	0xbd0f3802	-0.034965523
196	0x3d2aaa05	0.04166605
197	0x3c78d576	0.015187612
198	0x3b9cdc18	0.0047869794
199	0x3cec8b26	0.028874945
200	0x3c45249e	0.012032656
201	0x3bab6085	0.005230012
202	0x3d2fbcaa	0.042904533
203	0x3c1dccbc	0.009631332
204	0x3cba2ba4	0.022725888
205	0x3d2bc2b9	0.04193375
206	0xbcc68d03	-0.024237162
207	0xbb4c96bf	-0.0031217781
208	0xbc0426cc	-0.0080658905
209	0x3ccbf5f9	0.024897562
210	0xbb6b96d2	-0.003594805
211	0x3ba41d86	0.0050084023
212	0xbaf190a5	-0.0018429948
213	0xbbbe06cc	-0.00579915
214	0x3a3885e1	0.00070389925
215	0x3a0ff4d5	0.00054915
216	0xbcd3819b	-0.025818637
217	0x3c46cb0a	0.012133369
218	0xbca64a7a	-0.020299185
219	0x3c997d9b	0.018736651
220	0x3cd91033	0.026496982
221	0x3c2e79bd	0.010649142
222	0xbd2a5269	-0.0415825
223	0x3ca78928	0.020451143
224	0xbc6bd4af	-0.014393969
225	0xbd1b23a1	-0.037875775
226	0xbc8c3121	-0.01711327
227	0xbb5b8a3c	-0.0033499142
228	0xbbedcdc7	-0.0072571966
229	0x3c740fc3	0.014896336
230	0x3bbd8966	0.0057842014
231	0x3cd017f0	0.02540204
232	0x3be5f26e	0.0070174253
233	0xbc51ec39	-0.0128126675
234	0x3c26e2b3	0.010185885
235	0x3b12ea36	0.0022417433
236	0xbc9c2e64	-0.01906509
237	0xbc8c9baf	-0.01716408
238	0x3c9a19e6	0.018811177
239	0xbcd8a8fe	-0.02644777
240	0xbcd78d3e	-0.026312467
241	0x3b3c2270	0.002870705
242	0xbcc175d3	-0.023615753
243	0xbbf43969	-0.007453133
244	0xbc450b7a	-0.012026662
245	0xbcba239a	-0.022722054
246	0x3c902b58	0.017598793
247	0xbbac582f	-0.0052595357
248	0x3ab0042b	0.0013428977
249	0x3b3cc9d6	0.0028806827
250	0xbaa95e5a	-0.0012921796
251	0xbd1b3ca9	-0.037899647
252	0xbcff582f	-0.031169979
253	0xbce9e709	-0.028552549
254	0xbcff9575	-0.031199196
255	0xbcdeaf67	-0.027183248

bias f4 [23]
0	0xbc3fe2ee	-0.011711819
1	0xbd05f8f8	-0.03270814
2	0xbd98d566	-0.074625775
3	0xbcc1548c	-0.023599885
4	0xbb0cf5ff	-0.002150893
5	0xbafdc668	-0.0019361498
6	0xbba4ca83	-0.005029024
7	0x3d653849	0.05596188
8	0xbc4cbccc	-0.012496185
9	0x3d8420b7	0.06451552
10	0xbce08886	-0.02740885
11	0xbc053892	-0.008131163
12	0xbce1b1e8	-0.027550653
13	0xbae9cec2	-0.0017838108
14	0x3aba8946	0.0014231585
15	0x3a278a48	0.000639115
16	0xbc733b65	-0.014845704
17	0xbb6962a3	-0.003561177
18	0xb9ef5292	-0.00045647152
19	0xbb571d9c	-0.0032824045
20	0x3b1a81ab	0.0023575823
21	0xbaacac96	-0.0013173993
22	0xbd1d9fdd	-0.038482536

weight_ih_l0 f4 [400, 10]
0	0x3ca79161	0.020455064
1	0x3ca8a755	0.020587603
2	0xbd93220d	-0.07184229
3	0x3ce6537e	0.028115984
4	0xbd643e83	-0.05572368
5	0x3bb0ea2b	0.0053990087
6	0xbd9f658b	-0.0778304
7	0x3d0c9d77	0.034329858
8	0xbc73d2d2	-0.014881806
9	0x3d2df3b7	0.042468753
10	0xbdb6df96	-0.089293644
11	0x3d2fbd73	0.042905282
12	0x3d184ec7	0.037184503
13	0xbcbd162c	-0.023081861
14	0x3cfded6d	0.030997002
15	0x3d81604a	0.06317194
16	0xbc8d8eb6	-0.017279964
17	0x3d8fdff7	0.0702514
18	0x3d886bc2	0.06661178
19	0xbd5d3ef5	-0.05401512
20	0x3c86d52b	0.016459068
21	0x3da37c8f	0.07982742
22	0xbdf9f9ad	-0.12205825
23	0xbd1d3764	-0.038382903
24	0xbcd811fc	-0.026375763
25	0xbdc1d6f7	-0.094648294
26	0xbd8dafeb	-0.06918319
27	0x3d1eb97f	0.03875112
28	0xbd17a1da	-0.037019588
29	0x3d40f3ee	0.04710763
30	0xbd9afdee	-0.075679645
31	0xbc872ccd	-0.016500855
32	0xbc7125b5	-0.014718463
33	0xbd93ad25	-0.07210759
34	0x3d69f987	0.057122733
35	0xbcde86e3	-0.027163928
36	0x3d2e544e	0.042560868
37	0xbc93b07a	-0.018028487
38	0x3d067a75	0.032831628
39	0xbd822722	-0.0635512
40	0x3d832134	0.06402817
41	0xbd970ada	-0.07375117
42	0xbe02bcb0	-0.12767291
43	0xba0eebfd	-0.0005452035
44	0xbd57a4b3	-0.052647304
45	0x3d177d4a	0.03698472
46	0xbcf8c17b	-0.030365696
47	0x3d86e599	0.06586761
48	0xbd6becd8	-0.05759892
49	0xbd33bcfe	-0.04388141
50	0x3da0cf82	0.07852079
51	0xbcf69aaa	-0.030103046
52	0x3d280f65	0.041030306
53	0x3ce1cc09	0.027563112
54	0xbd505a18	-0.05086717
55	0x3d9ee1b9	0.07757897
56	0x3cab8ac0	0.020940185
57	0xbce3a3b8	-0.027788028
58	0xbc15324b	-0.009106229
59	0xbd751b66	-0.059840582
60	0xbd8c07d1	-0.06837428
61	0xbc16e5ae	-0.009210033
62	0xbdbf9ace	-0.093556985
63	0x3c1d0f92	0.009586232
64	0xbbf9d6a8	-0.007624466
65	0xbd68ce4f	-0.056837376
66	0x3da7b401	0.0818863
67	0xbb8585d7	-0.004074793
68	0x3c4918a1	0.012273938
69	0x3bfc7f48	0.007705603
70	0x3d1ded9b	0.038556676
71	0x3d3b3061	0.045700435
72	0x3d33ed2d	0.04392736
73	0x3d60715c	0.054795608
74	0x3d963fe4	0.07336405
75	0x3d899f4d	0.06719837
76	0x3d62498a	0.055245914
77	0xbd93b285	-0.07211784
78	0xbd7ef404	-0.06224443
79	0xbd33f68e	-0.043936305
80	0x3db230c2	0.08700706
81	0x3db63504	0.08896831
82	0xbd4fda06	-0.050745033
83	0xbd9f779a	-0.07786484
84	0x3b55f91b	0.00326497
85	0x3bb87d63	0.0056301816
86	0x3ce7d50b	0.028299829
87	0x3c64a246	0.013954705
88	0x3d88f06e	0.06686483
89	0xbddfd969	-0.109301396
90	0x3d3e6e72	0.046492048
91	0x3d8493ab	0.06473478
92	0x3d25588b	0.040367644
93	0xbafdd0a8	-0.0019364553
94	0xba524735	-0.0008021475
95	0x3b6ce287	0.0036145763
96	0xbde776ed	-0.1130198
97	0xbd8fc198	-0.07019347
98	0xbde942ec	-0.113897175
99	0x3ce2f6d3	0.027705586
100	0x3cc3bd52	0.023893986
101	0xbc8a6f79	-0.016898857
102	0xbde8c00b	-0.11364754
103	0x3d890a34	0.06691399
104	0x3da5426e	0.08069311
105	0x3d3b865a	0.045782425
106	0xbd84e1bd	-0.06488369
107	0x3d3068d3	0.04306872
108	0x3da5d158	0.0809657
109	0x3d869191	0.06570733
110	0xbd4cf952	-0.050042458
111	0xbc4bb797	-0.012433908
112	0x3dbc3790	0.09190285
113	0xbddc87fa	-0.10768123
114	0x3c8bdf73	0.017074322
115	0xbb85d31d	-0.0040840046
116	0xbd1ba31a	-0.037997343
117	0x3da54554	0.08069864
118	0x3d00cb51	0.031443898
119	0x3d5a7cdc	0.05334173
120	0xbd2ffc3c	-0.04296516
121	0xbd44d3d6	-0.048053585
122	0x3e2e5249	0.17023577
123	0xbc9d1e45	-0.019179473
124	0xbd9451ff	-0.07242202
125	0x3d637ce1	0.055539016
126	0xbd793362	-0.060840018
127	0xbdd170b5	-0.10226575
128	0x3d08806b	0.033325594
129	0xbc98f1da	-0.018670011
130	0xbd047700	-0.03234005
131	0xbd4be102	-0.04977513
132	0x3d606044	0.054779306
133	0x3dcf62e4	0.10126284
134	0x3d3d5b4c	0.046229646
135	0xbcc86077	-0.02446006
136	0xbdb9c9c5	-0.090716876
137	0xbd970669	-0.073742695
138	0x3cb4c62d	0.022067154
139	0xbbc2a7b2	-0.005940401
140	0x3d895f19	0.067075916
141	0xbd8c22f2	-0.06842603
142	0xbd18f0c1	-0.037338976
143	0xbdb7d1f6	-0.08975594
144	0xbd786697	-0.060644712
145	0xbd9b6883	-0.075882934
146	0x3d910692	0.07081331
147	0xbd675586	-0.056478046
148	0xbb6bdbb3	-0.0035989105
149	0x3d6e5231	0.058183853
150	0xbda6a632	-0.08137168
151	0xbd0df075	-0.034653146
152	0xbcefca1c	-0.029271178
153	0x3d5c62c2	0.05380512
154	0xbda44b22	-0.08022143
155	0x3d25458f	0.04034954
156	0xbd2c6d60	-0.042096496
157	0x3db23df8	0.08703226
158	0x3d6e4073	0.058166932
159	0x3c84cb2f	0.016210167
160	0x3d51df35	0.051238257
161	0x3d12336d	0.035693575
162	0x3cd7faec	0.026364766
163	0x3d06c903	0.032906543
164	0xbd5c4f40	-0.053786516
165	0xbc813e02	-0.015776638
166	0x3d9fd329	0.078039475
167	0x3bd9a834	0.006642366
168	0xbc95f805	-0.018306741
169	0xbc769a1a	-0.015051389
170	0x3da0cea2	0.07851912
171	0x3dc1f631	0.094707854
172	0xbc6ccb54	-0.014452774
173	0x3d83908e	0.06424056
174	0x3d3c9047	0.04603603
175	0xbd06c6a1	-0.03290427
176	0xbd985e75	-0.07439891
177	0xbd810c93	-0.063012265
178	0x3d1766ec	0.03696339
179	0xbdc5b767	-0.09654122
180	0xbbdf7986	-0.0068199066
181	0x3cdc62ac	0.02690252
182	0xbdee5fa9	-0.116393395
183	0xbc1625e9	-0.009164312
184	0xbd1d6cd6	-0.038433872
185	0x3d9ed263	0.07754972
186	0x3d73d1d5	0.059526283
187	0xbcb16d0d	-0.021658445
188	0xbd858f3e	-0.06521462
189	0x3d010791	0.031501357
190	0x3d9263c2	0.071479335
191	0xbd8ab145	-0.06772093
192	0xbdacbbee	-0.08434282
193	0xbab7e4bb	-0.0014029959
194	0x3d3bbb51	0.045832936
195	0x3dac422e	0.0841106
196	0xbd13f35e	-0.036120765
197	0x3d44a7be	0.048011534
198	0xbccc652a	-0.024950583
199	0x3dd76a6f	0.105183475
200	0xbd27bb73	-0.04095025
201	0x3b84358d	0.004034704
202	0x3ca596f5	0.020213583
203	0x3db67975	0.08909885
204	0xbd8a51cd	-0.067538835
205	0x3c7ff671	0.015622721
206	0x3d31219e	0.04324495
207	0x3d994cc9	0.07485349
208	0xbd9a06f0	-0.075208545
209	0xbd24cddf	-0.040235396
210	0xbcaf2ab2	-0.021382663
211	0xbcb3e198	-0.021958157
212	0xbcaab718	-0.020839259
213	0x3d8eda2e	0.06975208
214	0x3c8f611b	0.017502358
215	0x3b093df1	0.002094146
216	0x3d9b989b	0.075974666
217	0xbd1214c9	-0.035664354
218	0x3d1c8657	0.038214054
219	0x3d90994f	0.07060491
220	0xbc0f5e46	-0.008750504
221	0x3d8b93b0	0.068152785
222	0xbd277b69	-0.040889177
223	0xbd854278	-0.065068185
224	0xbcea2616	-0.028582614
225	0xbdbaec8b	-0.09127148
226	0xbcd89d86	-0.0264423
227	0xbd9c482c	-0.07630953
228	0x3d8008d6	0.06251685
229	0xbdc83424	-0.0977557
230	0xbdc7185b	-0.09721442
231	0x3c930487	0.017946495
232	0xbdd25c67	-0.102715306
233	0xbcc4bf22	-0.02401692
234	0x3d8861c5	0.06659273
235	0x3cb1ee03	0.021719938
236	0xbccfcef8	-0.025367245
237	0x3d9fca7d	0.078022934
238	0xbd23b5fc	-0.039968476
239	0x3d80a6a0	0.06281781
240	0xbdeb1cb8	-0.11480087
241	0x3db2feab	0.0873998
242	0xbdb7343c	-0.0894551
243	0x3c5069d7	0.012720547
244	0xbd82d5d4	-0.06388441
245	0xbc5f77d3	-0.013639408
246	0xbdaa4ff6	-0.083160326
247	0xbbe58042	-0.007003815
248	0x3c628b33	0.013827133
249	0x3d046031	0.032318298
250	0xbdbfccba	-0.0936522
251	0x3da45026	0.080230996
252	0xbd308860	-0.043098807
253	0xbd23eafc	-0.04001902
254	0x3c95ed79	0.018301712
255	0xbd2ab53a	-0.041676737

weight_hh_l0 f4 [400, 100]
0	0xbd142798	-0.036170572
1	0xbd4e95f3	-0.05043597
2	0x3ceb2aa3	0.028706854
3	0xbbdb0fbe	-0.006685226
4	0xbb7a9231	-0.003823411
5	0xbd8222c8	-0.0635429
6	0x3de093f2	0.10965718
7	0x3d6d5a34	0.057947353
8	0xbc2f930b	-0.01071621
9	0xbd374a67	-0.04474869
10	0xbbb21178	-0.0054342113
11	0x3d2a37d4	0.041557148
12	0xbd2b9199	-0.0418869
13	0xbd44dcd9	-0.04806218
14	0x3caa49dc	0.020787172
15	0x3b57049e	0.0032809149
16	0x3d282d21	0.041058663
17	0x3da339b2	0.07969989
18	0xbdf6c33e	-0.12048958
19	0x3d9f6a98	0.07784003
20	0xbd8d0b52	-0.06886925
21	0xbc9129f2	-0.017720196
22	0x3cffbc78	0.031217799
23	0x3d1961f3	0.037446927
24	0xbdb3c966	-0.08778648
25	0x3d90104f	0.070343606
26	0x3dbe85cf	0.09302866
27	0xbcb5cbbb	-0.022191873
28	0xbd175044	-0.03694178
29	0xbda80420	-0.08203912
30	0xbd472c7a	-0.0486264
31	0xbd409542	-0.047017343
32	0x3d951355	0.07279078
33	0x3ddcbc1c	0.107780665
34	0x3d5d42ea	0.054018892
35	0x3cbf08b7	0.023319585
36	0x3b6c3e13	0.0036047741
37	0xbb22a4b6	-0.0024817414
38	0xbcfb1c2d	-0.030653084
39	0x3c2236ff	0.009900807
40	0x3db695a2	0.08915259
41	0xbd5dd1e7	-0.054155257
42	0x3cc838ff	0.02444124
43	0xbdab77a1	-0.08372427
44	0xbd8e7356	-0.06955592
45	0xbd29c102	-0.041443832
46	0x3cb6cd1a	0.022314597
47	0x3d752f46	0.059859537
48	0x3bf2b300	0.0074065924
49	0xbccdfb95	-0.025144378
50	0xbc923ec4	-0.017852195
51	0x3dd82a01	0.105548866
52	0x3db3c217	0.08777254
53	0x3d30ce3f	0.04316544
54	0xbd7889a2	-0.060678132
55	0xbc38317d	-0.011242268
56	0xbda02ed8	-0.07821435
57	0xbdc60dea	-0.09670623
58	0x3ddb7edf	0.10717558
59	0x3cf819fe	0.030285832
60	0x3d04aa5c	0.03238903
61	0x3d44792c	0.04796712
62	0x3be96cae	0.0071235513
63	0x3d353eea	0.044249453
64	0xbcbd4497	-0.023103995
65	0xba725f09	-0.0009245729
66	0xbcabb184	-0.02095867
67	0x3d7928f4	0.06083007
68	0x3d3f828b	0.046755355
69	0x3d976464	0.07392195
70	0xbd05bf22	-0.03265298
71	0xbc40782b	-0.0117474
72	0xbcab509c	-0.020912461
73	0xbd1e17d7	-0.038596954
74	0x3c70b5da	0.014691794
75	0x3d34c81f	0.044136163
76	0x3d5142b6	0.05108901
77	0x3dad8dbf	0.084743015
78	0x3c9afa3e	0.018918153
79	0xbd86ee30	-0.065883994
80	0xbdde8b32	-0.10866393
81	0xbd35c11c	-0.044373617
82	0xbdaadecc	-0.083432764
83	0x3dba4702	0.09095575
84	0x3d1f17c3	0.03884102
85	0xbd4076dd	-0.046988357
86	0xbdcfc8a3	-0.1014569
87	0xbc906edb	-0.017630985
88	0xbd84dc29	-0.06487305
89	0xbd8155a4	-0.06315163
90	0x3d84352d	0.06455455
91	0x3d028feb	0.031875532
92	0xbd860dc2	-0.06545593
93	0x3a9d6db5	0.0012010845
94	0xbcf54217	-0.02993874
95	0x3cd00ec9	0.025397675
96	0x3ddaaf1b	0.1067793
97	0x3cf80241	0.030274512
98	0x3cea1c0f	0.028577833
99	0x3d4160c7	0.047211435
100	0x3df12060	0.11773753
101	0xbd45e41b	-0.04831324
102	0xbc25052e	-0.010072036
103	0xbdc011f3	-0.093784235
104	0xbd28feb8	-0.041258544
105	0xbd45da4b	-0.048303884
106	0xbc51e092	-0.012809889
107	0x3d9e6806	0.07734685
108	0x3d05ad24	0.032635823
109	0x3d0603f2	0.032718606
110	0xbdb4f48e	-0.088357076
111	0xbdf5e6fb	-0.12006947
112	0xbcbbc217	-0.022919698
113	0x3d0a5595	0.033773024
114	0x3d5c36a1	0.053763036
115	0xbccbe1b2	-0.024887893
116	0x3cb9b6b0	0.02267012
117	0x3d0a0f9a	0.033706285
118	0x3c2a55e4	0.0103964545
119	0x3d748735	0.059699256
120	0xbd1dff60	-0.038573623
121	0x3d8b5861	0.06803966
122	0x3d7a0ded	0.061048437
123	0xbba07b9a	-0.004897547
124	0x3d877755	0.06614558
125	0xbc261570	-0.010136947
126	0xbcd2db14	-0.02573923
127	0xbe13af9e	-0.14422461
128	0xbd20db7c	-0.039271817
129	0xbdede61d	-0.11616156
130	0xbcdad3f3	-0.026712393
131	0x3d8118e1	0.063035734
132	0xbe16b7bd	-0.14718528
133	0x3ccfba9d	0.025357539
134	0xbd9cbd64	-0.07653311
135	0x3d091bcf	0.033473786
136	0x3d4200aa	0.047363915
137	0x3c3834c2	0.011243047
138	0xbd161319	-0.036639307
139	0x3da00a36	0.078144476
140	0x3d2cfca5	0.042233128
141	0x3d657958	0.056023926
142	0xbdf24098	-0.118287265
143	0x3df5b458	0.119972885
144	0xbc9debe5	-0.019277522
145	0x3d34cc7f	0.044140335
146	0x3cdb5abd	0.026776666
147	0x3d7dd1e8	0.06196776
148	0x3d5b61b6	0.05355998
149	0x3cc44331	0.02395782
150	0x3d2bd557	0.041951504
151	0xbdad1f0a	-0.08453186
152	0x3c35aa6e	0.011087997
153	0x3d7055af	0.058675464
154	0xbdd2c60a	-0.10291679
155	0xbd967577	-0.073466234
156	0xbd09d9c0	-0.03365493
157	0xbd7f9f20	-0.062407613
158	0xbd32da1c	-0.043665037
159	0x3d5bab30	0.053630054
160	0x3dbdaec4	0.092618495
161	0x3b427189	0.0029669723
162	0x3cb548d8	0.022129461
163	0x3dd2bd03	0.102899574
164	0xbd143c59	-0.036190365
165	0xbda2f866	-0.079575345
166	0x3d3d923a	0.04628203
167	0xbca95729	-0.020671444
168	0x3d13e752	0.036109276
169	0x3d0a62c3	0.033785593
170	0xbd1b2c6d	-0.037884165
171	0x3d949182	0.07254316
172	0x3d880d01	0.06643105
173	0xbd8939ba	-0.067004636
174	0xbd31ab4d	-0.043376256
175	0xbc8a1845	-0.016857276
176	0x3c718330	0.01474075
177	0x3ded1cf7	0.1157779
178	0x3d75829e	0.05993902
179	0xbd95483c	-0.07289168
180	0xbb70beba	-0.0036734776
181	0x3cb0a1ef	0.021561591
182	0xbbe311bb	-0.006929604
183	0x3dd12727	0.10212546
184	0x3e192664	0.14956051
185	0xba2cf3dd	-0.0006597618
186	0x3da1b17e	0.07895182
187	0xbdf3a96d	-0.1189755
188	0xbd833e30	-0.06408346
189	0x3ddb62e5	0.10712222
190	0x3c6d844e	0.014496876
191	0xbc10b748	-0.00883276
192	0xbe1174dc	-0.14204735
193	0xbd827f52	-0.06371941
194	0x3d69fcad	0.057125736
195	0xbbedf8db	-0.007262332
196	0xbd7ca719	-0.061682794
197	0x3dc06ae0	0.09395385
198	0x3d7cb135	0.061692435
199	0xbde387aa	-0.1110986
200	0xbd9a6a2a	-0.075397804
201	0xbc866f50	-0.0164105
202	0xbd0187cd	-0.03162365
203	0x3d5e2217	0.05423173
204	0x3ce7f033	0.028312778
205	0x3a38efc0	0.00070547685
206	0x3db51433	0.08841743
207	0x3de4e51c	0.11176512
208	0xbcb0661d	-0.021533066
209	0x3d811b5e	0.06304048
210	0x3d6865f8	0.05673787
211	0x3d5e0ae2	0.054209597
212	0xbd9a1f7a	-0.07525535
213	0xbe06c13c	-0.1315965
214	0xbc4b2d13	-0.012400883
215	0xbd98bcbb	-0.074578725
216	0xbd4f8b32	-0.050669856
217	0x3ca9aea3	0.020713156
218	0x3d249892	0.040184565
219	0xbd6c2369	-0.057650957
220	0x3d0fa6a4	0.03507103
221	0x3d6f01a0	0.05835116
222	0xbccbee08	-0.024893776
223	0x3d6423d5	0.055698235
224	0xbdadab7b	-0.08479973
225	0xbdab1974	-0.08354464
226	0x3d38ae17	0.0450879
227	0x3cb62ee2	0.022239152
228	0x3cd8e8e1	0.026478233
229	0x3d2987d0	0.041389287
230	0x3de1906d	0.11013875
231	0x3d492ca9	0.049114857
232	0xbdd443fd	-0.1036453
233	0xbd0a5ba0	-0.033778787
234	0x3ce62c8c	0.028097413
235	0xbc5b2586	-0.0133756455
236	0x3d0ba790	0.034095347
237	0x3cf3e304	0.029771335
238	0xbdea0962	-0.11427571
239	0x3d917682	0.07102682
240	0x3d4a1620	0.049337506
241	0x3d7b090d	0.06128793
242	0xbc177d78	-0.009246223
243	0x3dc72a1d	0.09724829
244	0xbc06211c	-0.008186605
245	0xba20858a	-0.00061234145
246	0x3d952da6	0.072840974
247	0x3d4a077c	0.049323544
248	0xbd9ad5eb	-0.07560333
249	0x3d66e82e	0.056373768
250	0x3db32a02	0.08748247
251	0xbd939132	-0.07205428
252	0xbd1f6998	-0.03891906
253	0xbd839f3f	-0.06426858
254	0x3d9e9968	0.07744104
255	0xbd96dd20	-0.07366395

bias_ih_l0 f4 [400]
0	0x3ddb6f56	0.10714595
1	0x3e1a4b70	0.1506784
2	0xbdc6d136	-0.097078726
3	0x3b819699	0.00395472
4	0x3d8dda77	0.069264345
5	0x3d00d762	0.031455405
6	0x3d58dd8c	0.05294566
7	0xbcc14a00	-0.023594856
8	0x3d5b4c3a	0.053539492
9	0x3ba0ab99	0.0049032685
10	0x3d7dbb05	0.061945934
11	0x3c48528c	0.012226712
12	0x3d88aaf6	0.06673233
13	0x3dba04ae	0.09082924
14	0x3dcf5d45	0.101252116
15	0x3d98b891	0.07457078
16	0xbd7f3abf	-0.062311884
17	0x3dcc0521	0.09961916
18	0x3d3e5377	0.046466317
19	0x3cdfd63d	0.027323836
20	0xbcf1b435	-0.029504875
21	0x3d5d4751	0.05402309
22	0x3bd50c34	0.006501699
23	0xbc7ba410	-0.01535894
24	0xbde0fe3b	-0.109859906
25	0x3d5fd6b0	0.0546481
26	0xbd1d46d0	-0.03839761
27	0xbd0bdee9	-0.03414813
28	0x3daf41cf	0.08557474
29	0xbcb2f201	-0.021843912
30	0x3dd7cac1	0.10536719
31	0xbd9981ee	-0.07495485
32	0xbcd528fe	-0.026020523
33	0x3d0ce87b	0.0344014
34	0x3d48ecd5	0.049053986
35	0x3d6583b3	0.0560338
36	0xbe002bc7	-0.125167
37	0xbc8e093e	-0.017338391
38	0x3db7172a	0.08939965
39	0xbc65bdb4	-0.0140222795
40	0x3ddc6d1b	0.10762998
41	0xbb830fde	-0.0039996943
42	0x3ae5fa9e	0.0017546003
43	0x3da1cf6d	0.079008915
44	0xbdcb4865	-0.099259175
45	0xbd36b33b	-0.04460452
46	0xbc4588b1	-0.012056516
47	0x3db5acc8	0.08870846
48	0x3dcce3d4	0.10004392
49	0xbadbabba	-0.0016759553
50	0x3d3293e6	0.04359808
51	0xbbb223a9	-0.00543638
52	0xbd3f9227	-0.04677024
53	0xbd58ff00	-0.052977562
54	0x3da9f9d5	0.08299605
55	0xbd3d05ea	-0.04614822
56	0x3dea4d6d	0.11440549
57	0x3d6edb05	0.058314342
58	0x3d27665e	0.04086911
59	0x3aeb9e17	0.0017976192
60	0x3da12868	0.07869035
61	0xbcef068b	-0.029177925
62	0x3e05d902	0.13071063
63	0xbdbc0265	-0.09180144
64	0xbcbf4c0f	-0.023351697
65	0x3d985f3b	0.07440039
66	0x3c076963	0.008264872
67	0xbbe17ae1	-0.0068811034
68	0x3dc508ad	0.096207954
69	0x3d1e3386	0.038623355
70	0xbc83b187	-0.016075863
71	0xbcfa4a59	-0.03055303
72	0xbd7b91f3	-0.061418485
73	0x3d0d3568	0.03447476
74	0xbbe94d3f	-0.007119804
75	0xbd1acf72	-0.03779549
76	0xbc46cbae	-0.012133522
77	0x3adba5a3	0.0016757738
78	0x3d530360	0.05151689
79	0xbdcf6125	-0.10125951
80	0x3b8b2664	0.00424652
81	0xbd249e27	-0.04018989
82	0x3d967502	0.07346536
83	0x3dbb7ab1	0.09154261
84	0xbd4a2cc1	-0.049359087
85	0xbdbf0187	-0.09326463
86	0x3d5dfda3	0.054196965
87	0xbd908eff	-0.07058524
88	0xbd049d82	-0.032376774
89	0x3d81a9ac	0.063311905
90	0x3d9e27a4	0.077224046
91	0xbc201103	-0.009769681
92	0x3dc81320	0.09769273
93	0x3d890f7a	0.06692405
94	0xbd972de9	-0.073818035
95	0x3dc386aa	0.095471695
96	0xbcdec643	-0.027194148
97	0xbd681a24	-0.056665555
98	0x3c3d8cf0	0.011569247
99	0xbc16b9e3	-0.009199592
100	0x3c8adef7	0.016952021
101	0xbd65e0a0	-0.056122422
102	0xbd209284	-0.03920223
103	0xbc15b46f	-0.009137257
104	0x3d9bda7a	0.076100305
105	0xbd1ac771	-0.03778786
106	0x3d9f8f5c	0.077910155
107	0x3d9e590b	0.07731827
108	0xbd5a2dc1	-0.05326629
109	0xbc54a303	-0.012978318
110	0xbc0b38ae	-0.0084974
111	0x3c444ebb	0.011981661
112	0x3d964a55	0.073383965
113	0xbcab5409	-0.020914095
114	0x3d01375b	0.03154693
115	0x3d16db25	0.036830086
116	0xbd30df03	-0.04318143
117	0xbd889fc8	-0.06671101
118	0x3d302431	0.043003265
119	0xbdbdd997	-0.092700176
120	0xbd2e21e4	-0.04251279
121	0xba8b6563	-0.0010635074
122	0x3e04601d	0.1292729
123	0xbce0f2cd	-0.027459526
124	0x3bc57df2	0.0060269767
125	0x3cd00ee0	0.025397718
126	0xbd180c91	-0.03712136
127	0x3dc7d883	0.09758093
128	0x3db17027	0.086639695
129	0x3cde2d5f	0.027121244
130	0x3da14061	0.078736074
131	0xbd1682a0	-0.036745667
132	0x3d8b78b9	0.068101354
133	0xbd6afbfc	-0.057369217
134	0xbdf98509	-0.121835776
135	0xbd1a06a6	-0.037603997
136	0x3d110b0f	0.035410937
137	0x3c01997b	0.007910128
138	0x3da611f8	0.08108896
139	0xbd9dac4b	-0.07698878
140	0x3db2571a	0.087080196
141	0xbd23a792	-0.03995473
142	0x3d976952	0.07393135
143	0xbded3852	-0.11583008
144	0x3d1154e9	0.035481367
145	0xbdb14e5e	-0.086575255
146	0x3d7cdea6	0.06173577
147	0xbd97faa8	-0.07420856
148	0x3c225bc6	0.009909576
149	0x3ddd2dc0	0.10799742
150	0xbd8cd98e	-0.06877433
151	0xbceb94a3	-0.028757399
152	0xbdc459c3	-0.09587433
153	0xbdcd2ca7	-0.100182824
154	0x3dec220c	0.115299314
155	0x3d0cbfff	0.03436279
156	0xbd9dfc20	-0.07714105
157	0xbde2c4f3	-0.11072721
158	0xbc3d6ff0	-0.0115623325
159	0x3b8c6f02	0.004285694
160	0x3dc91db1	0.09820116
161	0x3d822f40	0.063566685
162	0xbbeb0f05	-0.0071734213
163	0x3d2a139f	0.04152262
164	0xbd348623	-0.044073235
165	0xbd90f05f	-0.07077097
166	0x3d730b62	0.059337027
167	0xbbc1fb7c	-0.005919872
168	0x3ded4ce9	0.11586935
169	0x3d028baf	0.031871494
170	0xbdaf26d7	-0.0855233
171	0xbc261a98	-0.010138176
172	0xbda36b21	-0.079794176
173	0x3de0c3e8	0.10974866
174	0x3c7691a6	0.015049374
175	0x3c8d7c62	0.017271224
176	0x3d504198	0.050843805
177	0x3cd80f0c	0.026374362
178	0xbd89dd36	-0.06731646
179	0x3c8f2b31	0.01747665
180	0x3ddf06ce	0.1088997
181	0x3d805496	0.062661335
182	0xbdd9d178	-0.10635656
183	0x3de32f1e	0.11092971
184	0x3da68e6a	0.08132632
185	0x3d82fdb1	0.06396044
186	0x3c9f1cc8	0.019422904
187	0x3e0046bd	0.12526985
188	0x3d793647	0.06084278
189	0x3d4eb5e1	0.050466422
190	0xbcbe0b38	-0.023198709
191	0x3dd8fc30	0.10594976
192	0xbc56406d	-0.013076884
193	0x395084c0	0.00019885879
194	0x3d8ca128	0.068666756
195	0x3d1153eb	0.03548042
196	0x3d9eeb68	0.07759744
197	0xbbee4e60	-0.0072725266
198	0xbd64948f	-0.05580574
199	0xbd4526ed	-0.048132826
200	0x3e13896b	0.1440789
201	0xbdc7fa48	-0.09764534
202	0x3ccb167e	0.024790999
203	0xbc94a7e7	-0.018146468
204	0x3e02c5a8	0.12770712
205	0x3d0ffd44	0.035153642
206	0xbcb8752f	-0.022516815
207	0x3c864fcf	0.016395478
208	0x3de699aa	0.11259778
209	0xbc7b844d	-0.015351367
210	0xbca1914e	-0.019722607
211	0xbc23f595	-0.010007282
212	0x3dae8bf7	0.0852279
213	0xbd145b14	-0.03621967
214	0x3cecf0cb	0.028923413
215	0xbc24e20b	-0.0100636585
216	0xbc95f68b	-0.018306037
217	0xbcdd6e4f	-0.027030138
218	0xbe0a1dcf	-0.13487934
219	0x3c4888ae	0.012239618
220	0xbd3eb5b7	-0.046560016
221	0xbdb85867	-0.090012364
222	0xbd9e9d14	-0.07744804
223	0xbcac27d6	-0.021015089
224	0x3aa31619	0.0012442499
225	0xbcf9d782	-0.03049827
226	0x3d29539b	0.041339498
227	0xbdb0d2cc	-0.08633956
228	0xbd614faa	-0.055007614
229	0x3da234d8	0.079202354
230	0xbb7d303d	-0.0038633489
231	0x3d94f6a9	0.07273609
232	0xbc0efe05	-0.008727555
233	0xbd8935fa	-0.06699748
234	0x3d24eabe	0.04026293
235	0x3c6088d4	0.013704497
236	0xbd1a51ef	-0.037675794
237	0x3db5019c	0.088381976
238	0x3cdf123b	0.027230373
239	0xbd8adaa8	-0.067799866
240	0xbd425ca2	-0.047451623
241	0x3af79295	0.0018888289
242	0x3d023264	0.031786337
243	0x3d78b44d	0.060718823
244	0xbdb057c5	-0.08610491
245	0xbcc112e7	-0.023568584
246	0xbd4a8abf	-0.049448725
247	0xb9602b23	-0.00021378374
248	0xbbfb134b	-0.007662212
249	0xbc326573	-0.010888445
250	0xbbe7d565	-0.007074999
251	0xbdadc54f	-0.08484899
252	0xbda64087	-0.08117776
253	0xbda12025	-0.07867459
254	0x3d8f1cb3	0.06987896
255	0x3da39d38	0.079889715

bias_hh_l0 f4 [400]
0	0xbd26a4d4	-0.040684536
1	0x3e0769c9	0.13223948
2	0x3cf245d6	0.029574316
3	0xbc9fc4a7	-0.01950295
4	0x3de6709f	0.112519495
5	0x3ce2861b	0.027651837
6	0x3d492d10	0.04911524
7	0x3d89bd56	0.06725566
8	0x3cd8915e	0.026436504
9	0x3d00111c	0.031266317
10	0x3dd9543f	0.10611772
11	0x3dceeafb	0.10103413
12	0x3d273c60	0.040829062
13	0x3d27b58a	0.040944614
14	0xbd4d4814	-0.050117567
15	0x3daa732b	0.08322748
16	0xbdb5f08f	-0.088837735
17	0x3c3823f1	0.011239038
18	0xbd07f255	-0.03319009
19	0x3dc26256	0.09491412
20	0x3d298e79	0.04139564
21	0x3d6a06cb	0.057135385
22	0xbcc5106e	-0.024055686
23	0xbb84497f	-0.0040370817
24	0xbd748d37	-0.059704985
25	0x3d17d855	0.037071545
26	0x3e0f626d	0.1400239
27	0x3d9538be	0.07286213
28	0x3db2a17f	0.08722209
29	0x3db4660b	0.08808526
30	0x3cd76fcc	0.026298426
31	0xbcf85e45	-0.030318389
32	0xbd2257a3	-0.03963436
33	0x3e000563	0.12502055
34	0x3dc8289e	0.09773372
35	0xbdc195d6	-0.09452407
36	0xbd1620a6	-0.03665223
37	0x3da52ede	0.0806558
38	0x3d7ca7e0	0.061683536
39	0xbcf73fe9	-0.030181842
40	0x3cf1a60e	0.029498126
41	0x395e38b6	0.00021192696
42	0x3d095dfe	0.033536904
43	0xbd15144d	-0.036396313
44	0x3ca5955f	0.020212827
45	0xbcdd6f86	-0.027030718
46	0x3c529331	0.012852476
47	0x3d8ea6f5	0.06965438
48	0x3cb2332c	0.021752916
49	0x3d870d30	0.06594312
50	0xbd630671	-0.055426065
51	0x3d0d72a4	0.034533158
52	0xbd4a7681	-0.04942942
53	0x3db15a14	0.08659759
54	0xbcd4c804	-0.025974281
55	0x3da36c1f	0.07979607
56	0xbca92260	-0.020646274
57	0x3d8a863a	0.06763883
58	0x3d868a83	0.06569388
59	0xbd12810a	-0.035767592
60	0x3dda52d8	0.106603324
61	0xbd147761	-0.03624666
62	0xbd757c49	-0.05993298
63	0x3d6eaebb	0.058272105
64	0x3d899663	0.06718137
65	0xbda5ecf0	-0.08101833
66	0xbd550bcf	-0.052013215
67	0x3d9b6f66	0.07589607
68	0x3da07442	0.078346744
69	0x3c89cc20	0.016820967
70	0x3d481285	0.048845787
71	0x3e011ce0	0.12608671
72	0xbd9668f0	-0.07344234
73	0x3db41fb8	0.08795112
74	0xbd8f7caa	-0.070062
75	0xbd952433	-0.07282295
76	0xbd0327e8	-0.03202048
77	0xbd742ec3	-0.059614908
78	0x3d4ab69d	0.04949056
79	0x3d905bd9	0.070487686
80	0xbd9cd2bf	-0.07657384
81	0x3ceac0e7	0.028656436
82	0x3d8ce48e	0.06879531
83	0x3cfdb49d	0.030969912
84	0x3db5a4a4	0.08869293
85	0x3d476ef7	0.04868981
86	0x3d04ed2f	0.03245276
87	0xbd7119b1	-0.05886239
88	0xbdb4ae5f	-0.08822321
89	0xbd1b8a70	-0.03797382
90	0x3c157a04	0.009123329
91	0x3d6695ec	0.05629532
92	0x3ca45ec8	0.020064726
93	0x3daffa32	0.08592643
94	0x3dee4053	0.116333626
95	0xbda61aee	-0.08110605
96	0xbc4d2e6e	-0.012523277
97	0x3d42527a	0.047441937
98	0x3e06e966	0.13174972
99	0x3b0b3c53	0.0021245673
100	0x3d569931	0.05239219
101	0xbd051f0d	-0.032500315
102	0xbdca46cf	-0.09876787
103	0x3d813d81	0.06310559
104	0x3d3b462b	0.045721214
105	0xbdc6d3b5	-0.09708349
106	0xbd9c7422	-0.07639338
107	0x3cfe2dee	0.03102776
108	0xbd05f34e	-0.032702737
109	0x3dbf5ade	0.093435034
110	0xbccc43eb	-0.02493473
111	0x3cdd9a7d	0.027051205
112	0x3d1ce3b7	0.038303103
113	0x3d8090fa	0.06277652
114	0x3db9e1be	0.0907626
115	0x3dccde41	0.10003329
116	0x3dc4b0b6	0.096040174
117	0xbca070c2	-0.019585017
118	0x3e08875f	0.1333289
119	0xbdc0774f	-0.09397756
120	0x3bb4b0a9	0.0055142236
121	0x3c2652c6	0.010151571
122	0xbbb0fdb9	-0.00540134
123	0x3dd9bb75	0.10631458
124	0x3d05695f	0.032571193
125	0xbd2bc9cf	-0.041940507
126	0xbcf019cd	-0.029309178
127	0xbbc363ea	-0.0059628384
128	0x3d4dab1c	0.05021201
129	0x3dd6c948	0.1048761
130	0x3db0b1f5	0.086276926
131	0x3c7990e0	0.015232295
132	0xbd0ba2de	-0.03409087
133	0x3d6d81f9	0.05798528
134	0xbccb4c51	-0.024816664
135	0x3c2737fe	0.010206221
136	0x3dba4a24	0.090961725
137	0x3c95e576	0.018297892
138	0xb8715faa	-5.754797e-05
139	0x3b3872d4	0.0028144615
140	0xbd7d3df6	-0.06182667
141	0x3d814817	0.06312578
142	0x3c9fe2bd	0.019517297
143	0xbd6db6de	-0.058035724
144	0xbdcad9f3	-0.09904852
145	0xbd0cb504	-0.034352317
146	0x3d5b7a7e	0.053583615
147	0xbce7db89	-0.028302925
148	0x3d009f31	0.031401817
149	0x3dc9ae78	0.098477304
150	0x3d508264	0.0509056
151	0x3db8bb81	0.090201385
152	0x3cbd3329	0.023095684
153	0xbd8b786d	-0.06810079
154	0x3c6b832f	0.014374538
155	0xb81927f5	-3.6515255e-05
156	0x3da061e8	0.07831174
157	0xbcdeed8d	-0.027212882
158	0x3d63cfd9	0.05561814
159	0xbcfdb83c	-0.030971639
160	0x3b760ff6	0.0037546135
161	0xbd17fcdb	-0.037106376
162	0x3dbbabd4	0.09163633
163	0xbdb81e56	-0.08990161
164	0x3c392d78	0.0113023445
165	0xbd1fc731	-0.039008323
166	0x3b3e23f0	0.002901312
167	0x3dc7545b	0.097328864
168	0x3d47a587	0.048741844
169	0xbd353f2b	-0.044249695
170	0xbd008cdb	-0.03138433
171	0x3bbd5d4b	0.0057789437
172	0xbab0599d	-0.0013454441
173	0x3c9a6060	0.018844783
174	0x3c30a779	0.010782116
175	0xbd629c88	-0.05532506
176	0x3d34c950	0.0441373
177	0x3cb76422	0.022386614
178	0xbbc6fddf	-0.0060727443
179	0xbca9f706	-0.020747673
180	0xbb68bc50	-0.0035512634
181	0x3d4a5d7f	0.04940557
182	0x3d936922	0.07197787
183	0x3d989044	0.074493915
184	0xbd9c1d09	-0.076227255
185	0xbbb6133f	-0.0055564935
186	0x3c92b584	0.017908819
187	0x3e04594d	0.1292469
188	0xbdaf3743	-0.08555462
189	0xbb440324	-0.0029909099
190	0x3b608a77	0.003426222
191	0x3d055af5	0.032557447
192	0xbc0032a8	-0.007824577
193	0xbd9cdf3a	-0.076597646
194	0xbc46f915	-0.012144347
195	0xbd65a41f	-0.05606472
196	0x3da9013e	0.0825219
197	0xbc8ecb9a	-0.01743107
198	0xbd62068b	-0.05518202
199	0x3d178927	0.036996033
200	0x3dce9aff	0.10088157
201	0x3ccb1f90	0.024795324
202	0xbc85142c	-0.01624497
203	0xbd8625da	-0.06550188
204	0x3dc45d05	0.095880546
205	0x3de2563f	0.110516064
206	0x3d08e84c	0.03342466
207	0x3d443190	0.04789883
208	0xbd23f0fa	-0.040024735
209	0x3cc0382f	0.02346429
210	0xbd9992b4	-0.074986845
211	0x3d65b758	0.056083053
212	0x3dbc9cd5	0.09209601
213	0xbd9090e2	-0.07058884
214	0xbd1d0633	-0.03833599
215	0xbc867653	-0.016413843
216	0xbcef654e	-0.02922311
217	0xbd3359e5	-0.043786902
218	0x3cfc8e50	0.030829579
219	0x3e004b37	0.12528692
220	0xbd6db131	-0.05803031
221	0xbda1f680	-0.07908344
222	0xbcfd8b37	-0.030950172
223	0x3e14f5f1	0.14546944
224	0xbd5eedd7	-0.05442604
225	0x3d0b2ee6	0.033980273
226	0xbd90dbca	-0.070731714
227	0xbd3da967	-0.046304133
228	0x3dd32b65	0.10311011
229	0x3dd234a0	0.10263944
230	0xbc3cadb4	-0.011516023
231	0xbce1d223	-0.027566021
232	0xbdd6e51c	-0.10492918
233	0xbdb6c1af	-0.08923661
234	0x3d051cd6	0.032498203
235	0xbd43584c	-0.04769163
236	0x3d6d6021	0.057953004
237	0xbc2e062f	-0.0106215915
238	0xbdb6e7d2	-0.08930935
239	0x3da683ce	0.081306085
240	0xbd727c06	-0.05920031
241	0xbddaf092	-0.106904164
242	0x3deb0664	0.11475828
243	0xbd969e43	-0.07354405
244	0x3db3e3b9	0.08783669
245	0xbc698c5f	-0.0142546585
246	0x3d6b86fc	0.057501778
247	0xbdbe63fd	-0.09296415
248	0xbcf3b935	-0.0297514
249	0xbd7c1494	-0.061543062
250	0x3c81274d	0.01576581
251	0x3d610f23	0.054946076
252	0xbe08a462	-0.13343957
253	0xbd92b75c	-0.07163879
254	0x3df94e2f	0.121731155
255	0x3d70e5f9	0.05881307

weight_ih_l0_reverse f4 [400, 10]
0	0xbda1ff4b	-0.079100214
1	0xbda6f0eb	-0.0815142
2	0x3b20f133	0.0024557828
3	0xbc7f3abb	-0.015577967
4	0x3da4f529	0.08054573
5	0xbd383fc6	-0.044982694
6	0x3ce9266c	0.028460704
7	0x3d3b4082	0.045715816
8	0x3d534ad1	0.051585022
9	0xbb802aea	-0.0039113658
10	0xbda49119	-0.08035488
11	0xbd9a134b	-0.07523211
12	0x3e102266	0.14075622
13	0x3ac6dd01	0.0015172065
14	0xbcf1f9a6	-0.029537987
15	0x3d79bdcd	0.060972024
16	0x3c20e565	0.009820317
17	0x3c6aa37e	0.014321206
18	0x3da156b9	0.07877869
19	0x3dc36835	0.0954136
20	0xbc8c3c01	-0.017118456
21	0x3e174cbf	0.1477537
22	0xbd7c6941	-0.061623815
23	0x3d8b7b67	0.068106465
24	0x3d2a3f3b	0.041564208
25	0x3d87d542	0.066324726
26	0xbd31303b	-0.043258887
27	0x3d6a07eb	0.057136457
28	0x3c6280fa	0.013824696
29	0xbd16b843	-0.03679682
30	0x3ce3877e	0.027774569
31	0xbc72dd22	-0.01482323
32	0xbd4e8d76	-0.050427876
33	0x3c5d479a	0.013505841
34	0xbaa106a5	-0.0012285305
35	0xbdb7d284	-0.089756995
36	0x3cdb6d02	0.026785377
37	0xbd7cc9f0	-0.06171602
38	0x3d5308a1	0.0515219
39	0xbc57dfb3	-0.013175893
40	0x3d2009c8	0.039071828
41	0x3d8488f2	0.06471433
42	0xbd0a94b9	-0.03383324
43	0xbdd3f07e	-0.103486046
44	0xbd97ea2b	-0.07417711
45	0x3cd24189	0.025666015
46	0x3da2b480	0.07944584
47	0x3db90250	0.09033644
48	0xbdac47a3	-0.08412101
49	0x3bcfa246	0.006336483
50	0x3d1d44ab	0.038395565
51	0xbbcb4c11	-0.006204136
52	0xbd5968c0	-0.053078413
53	0xbdd1a713	-0.10236945
54	0x3d266365	0.040622134
55	0x3d72585f	0.05916631
56	0x3d67a7ea	0.05655662
57	0xbc9376ee	-0.018001046
58	0xbd8fa49a	-0.07013817
59	0x3c02f9cc	0.0079941265
60	0xbd27dd48	-0.040982515
61	0xbd5ab70d	-0.053397227
62	0xbca04b91	-0.019567283
63	0xbda30bda	-0.07961245
64	0xbd922a61	-0.071369894
65	0xbda9a24b	-0.08282908
66	0xbdd875fd	-0.105693795
67	0xbba6d4fe	-0.0050913086
68	0xbd8719b8	-0.06596702
69	0xbd56d89e	-0.052452676
70	0xbce49d55	-0.027907053
71	0xbdab1351	-0.08353294
72	0x3c94e95f	0.018177686
73	0xbdb2135e	-0.086951
74	0x3d996ba5	0.07491235
75	0x3da1863f	0.078869335
76	0x3cd1397f	0.025540112
77	0x3c86f41d	0.016473824
78	0x3cad1412	0.021127734
79	0xbce7bab9	-0.028287278
80	0xbda7ac69	-0.081871815
81	0x3d1dfc70	0.03857082
82	0xbd922c7e	-0.071373925
83	0xbdb41c8e	-0.08794509
84	0x3cb03eac	0.02151426
85	0xbce5d85e	-0.028057273
86	0x3d61eac6	0.055155538
87	0xbc4d4f7a	-0.012531156
88	0xbd55f4b3	-0.052235316
89	0x3db6b057	0.08920353
90	0xbd4da632	-0.050207324
91	0xbd8e077c	-0.06935021
92	0x3dbf965a	0.09354849
93	0x3d4481b7	0.04797527
94	0xbe03d3a6	-0.12873706
95	0x3daca070	0.084290385
96	0x3d23b149	0.039963994
97	0xbbc0071a	-0.0058602216
98	0xbda5e7f0	-0.08100879
99	0xbd9f0504	-0.077646285
100	0xbdd30312	-0.1030332
101	0x3cef2849	0.029194014
102	0xbccea79d	-0.025226409
103	0x3d443c28	0.047908932
104	0x3d6d3a0d	0.05791669
105	0x3dbc04ab	0.09180578
106	0x3d8fba22	0.07017924
107	0x3d96db3d	0.07366035
108	0x39ca41da	0.00038577506
109	0xbd018cde	-0.031628482
110	0xbd898008	-0.06713873
111	0x3df7e6c1	0.1210456
112	0x3db18a33	0.086689375
113	0x3cae1d4d	0.021254206
114	0xbd4363c1	-0.047702555
115	0xbd936490	-0.07196915
116	0x3daf0aa2	0.0854695
117	0x3c23a3de	0.009987799
118	0xbbec3b0b	-0.007209187
119	0xbb2e3fcb	-0.0026588317
120	0xbd9635c4	-0.07334474
121	0xbc16fa83	-0.009215
122	0x3da91b55	0.08257166
123	0x3d35f32b	0.044421356
124	0xbc4d6196	-0.012535473
125	0x3d81d40e	0.06339274
126	0x3d065a83	0.032801162
127	0xbc33e55d	-0.010979977
128	0xbd7983ed	-0.06091683
129	0xbd30af02	-0.04313565
130	0x3b5ed83a	0.0034003393
131	0xbd27d5fd	-0.04097556
132	0x3e019ba2	0.12657025
133	0x3c31fa4c	0.010862898
134	0x3ddbe341	0.107367046
135	0x3d0d9261	0.034563426
136	0x3c95b3e3	0.018274253
137	0xbd78bae8	-0.060725123
138	0xbd419570	-0.047261655
139	0xbd3b9b70	-0.045802534
140	0xbd69fd26	-0.057126187
141	0x3dd4e3a6	0.10394983
142	0x3dbd8c1e	0.09255241
143	0xbc56da0e	-0.013113512
144	0x3d8e7ad6	0.06957023
145	0x3dcf9c7e	0.101372704
146	0x3c9e0d28	0.019293383
147	0x3c3e16d8	0.011602126
148	0x3d9a2c67	0.07528
149	0x3d87f12a	0.06637795
150	0xbc39b449	-0.011334487
151	0x3d88ce22	0.06679942
152	0xbcbc719b	-0.02300339
153	0x3d814c44	0.06313375
154	0xbc988a37	-0.018620593
155	0x3c67ff8a	0.014160046
156	0x3dad35a8	0.084575
157	0x3d9f9a27	0.07793074
158	0x3d23292a	0.03983418
159	0x3d04d54b	0.032429975
160	0xbd778270	-0.06042713
161	0x3d4e9c5d	0.05044209
162	0xbc9ba528	-0.018999651
163	0x3d07a26e	0.03311389
164	0xbd6044bc	-0.05475305
165	0xbd876bfa	-0.06612392
166	0x3cfa22af	0.030534117
167	0xbcfcb5c6	-0.030848395
168	0x3dc165bc	0.094432324
169	0xbcd018f2	-0.02540252
170	0x3c513055	0.012767871
171	0xbe0977a4	-0.13424546
172	0xbd067b41	-0.032832388
173	0x3dba9395	0.0911018
174	0xbd867c9b	-0.06566735
175	0xbdd89ff3	-0.10577383
176	0x3cacc072	0.021087859
177	0xbd02bc70	-0.03191799
178	0x3d87e73c	0.06635901
179	0x3db4fca7	0.08837252
180	0x3d916f16	0.07101266
181	0xbd85e754	-0.06538263
182	0xbd917866	-0.07103042
183	0xbcdf69f5	-0.027272204
184	0xbda898b7	-0.08232253
185	0x3d4d71f7	0.050157513
186	0xbd8277f5	-0.06370536
187	0x3c482189	0.012215027
188	0xbdcedca4	-0.101006776
189	0x3d2c4dc3	0.042066347
190	0xbd9b9559	-0.07596845
191	0x3cada928	0.021198824
192	0xbdd1387f	-0.10215854
193	0xbde8721c	-0.1134989
194	0xbd0de66b	-0.03464357
195	0xbd1ee69b	-0.03879414
196	0xbda7d09d	-0.08194087
197	0x3d3bfb4c	0.045893952
198	0x3d3c65d8	0.045995563
199	0x3de31ba4	0.110892564
200	0xbc7b6a54	-0.015345175
201	0xbd90a594	-0.070628315
202	0xbd86f7ea	-0.065902546
203	0x3d70bdfa	0.058774926
204	0xbcdc1afb	-0.026868334
205	0x3cfd0b9b	0.030889323
206	0x3daa46ca	0.08314283
207	0xbcb28c54	-0.02179543
208	0xbdc6b923	-0.09703281
209	0x3bc850ee	0.006113163
210	0xbdcae246	-0.099064395
211	0xbcc1786c	-0.023616992
212	0xbdee7c9f	-0.11644863
213	0x3d5955af	0.05306023
214	0x3d3154bd	0.043293703
215	0x3cf684ac	0.03009256
216	0x3d592749	0.05301598
217	0xbd81544d	-0.06314907
218	0xbd8c897a	-0.06862159
219	0xbce72d25	-0.028219769
220	0x3dd4a31b	0.103826724
221	0x3d38cb98	0.045116037
222	0x3ccf4be3	0.02530474
223	0x3d9f2032	0.07769813
224	0xbd06ac4d	-0.032879163
225	0xbd3468c4	-0.044045225
226	0x3c71499f	0.014727025
227	0xbd9d4b68	-0.07680398
228	0x3ddc4473	0.10755243
229	0x3ccb70b7	0.02483402
230	0x3cf8b686	0.030360471
231	0xbca7bf1b	-0.020476868
232	0xbd0177da	-0.03160844
233	0x3dc58d73	0.0964612
234	0xbdb0be94	-0.086301
235	0xbd46342f	-0.04838961
236	0xbd43b8e1	-0.047783736
237	0x3dbd049d	0.092293955
238	0xbd986f39	-0.07443089
239	0xbc00a322	-0.007851394
240	0x3cf0cc54	0.029394306
241	0x3d8edb71	0.06975449
242	0xbc92aa6d	-0.017903531
243	0xbc3ab8f8	-0.011396639
244	0x3dac096d	0.08400235
245	0x3da64bab	0.08119901
246	0x3c9e870b	0.019351503
247	0xbbf7530d	-0.007547742
248	0x3cb9a78d	0.022662902
249	0xbd67d010	-0.05659491
250	0xbd839f02	-0.06426813
251	0xbdf3cba5	-0.119040765
252	0x3c92c224	0.01791484
253	0x3ce75202	0.028237347
254	0xbda8c61a	-0.0824091
255	0xbd7bf4dc	-0.061512813

weight_hh_l0_reverse f4 [400, 100]
0	0x3d698918	0.05701551
1	0x3dc1b3f9	0.09458155
2	0x3d1f0934	0.038827136
3	0x3dbc4255	0.09192339
4	0x3d8c98ab	0.068650566
5	0x3cd772f1	0.026299926
6	0xbd1d4e89	-0.038404975
7	0x3ddaa319	0.1067564
8	0xbde39678	-0.11112684
9	0xbbf44cf8	-0.0074554645
10	0xbdfaf34e	-0.12253438
11	0x3e078530	0.13234401
12	0xbcd56ed3	-0.026053822
13	0x3d4e1341	0.05031133
14	0x3d9fbc90	0.07799637
15	0xbd5971ed	-0.053087164
16	0xbd2a49b8	-0.04157421
17	0xbe184790	-0.14871049
18	0xbda48a78	-0.08034223
19	0xbde4977e	-0.11161707
20	0xbded2fab	-0.115813576
21	0xbcdcb52e	-0.026941862
22	0xbccc39d6	-0.024929922
23	0xbb9547d8	-0.0045556836
24	0xbdaf9ce8	-0.08574849
25	0xbc8174b1	-0.015802713
26	0xbd823b03	-0.06358912
27	0x3bb20265	0.0054324144
28	0x3c507b96	0.012724778
29	0xbbcb284d	-0.0061998726
30	0x3c9e9b2a	0.019361097
31	0xbd9e26b6	-0.07722227
32	0xbd70ab37	-0.058757033
33	0xbda1e984	-0.07905868
34	0xbda67c54	-0.081291825
35	0xbb468fe8	-0.0030298177
36	0x3d2b2b81	0.041789535
37	0x3d9b7ec6	0.075925395
38	0xbdb88368	-0.09009439
39	0xbe024aa7	-0.1272379
40	0xbcabc489	-0.020967739
41	0x3c18b6bd	0.009320912
42	0xbd888cca	-0.066674784
43	0x3df6cdbd	0.1205096
44	0x3c4707c1	0.012147845
45	0x3df5136c	0.11966595
46	0xbc232039	-0.009956413
47	0xbd7daca0	-0.061932206
48	0xbdaad2cd	-0.08340988
49	0x3dd43518	0.10361689
50	0xbc4104c6	-0.011780923
51	0x3d6788e8	0.05652705
52	0xbcba46e0	-0.022738874
53	0xbd8700b1	-0.06591929
54	0xbdbe1e7d	-0.09283159
55	0xbcbcdb98	-0.02305393
56	0xbd73eaf1	-0.05955023
57	0xbcb90496	-0.022585195
58	0x3d0c24df	0.03421485
59	0xbaae1dd9	-0.0013284042
60	0xbd6f1506	-0.05836966
61	0xbe228e39	-0.15874566
62	0xbdda6ca0	-0.1066525
63	0x3c7cf1fc	0.015438553
64	0xbbd9a5c6	-0.006642076
65	0x3e0b7ebc	0.13622564
66	0x3d9850ab	0.07437261
67	0x3d1251e3	0.035722625
68	0xbd444c52	-0.047924347
69	0xbbef7f3e	-0.0073088696
70	0x3c64e544	0.013970677
71	0xbc7c71c6	-0.015407985
72	0xbc817903	-0.015804773
73	0xbc91f288	-0.017815843
74	0xbccb3c68	-0.024809077
75	0x3d627c72	0.05529446
76	0xbd4fa1f9	-0.05069158
77	0xbd598af9	-0.05311105
78	0x3d13d4eb	0.036091726
79	0x3cb4f100	0.022087574
80	0xbdaf5254	-0.08560625
81	0xbc72fa38	-0.014830165
82	0x3ab0e4fc	0.0013495977
83	0xbd34f679	-0.044180367
84	0xbdc64fe9	-0.096832104
85	0x3dc2a537	0.095041685
86	0x3ac829dd	0.0015271265
87	0xbc99d437	-0.01877795
88	0x3d27d232	0.040971942
89	0x3ba6c091	0.0050888737
90	0x3da2354a	0.0792032
91	0x3d8a25e3	0.067455076
92	0x3c641497	0.013920925
93	0xbcc2f628	-0.023799017
94	0x3d1d6563	0.038426768
95	0x3c5f81c4	0.013641778
96	0xbd201bd7	-0.03908905
97	0x3d413bf8	0.04717633
98	0x3ddab22f	0.10678517
99	0xbabc59d8	-0.0014370037
100	0x3dd72661	0.10505367
101	0x3de3db0f	0.111257665
102	0x3ba4a02e	0.0050239777
103	0xbcaa5a1b	-0.020794919
104	0x3d9943b9	0.0748362
105	0x3cc72cb2	0.024313305
106	0xbdc5c496	-0.096566364
107	0x3de1fcd5	0.11034552
108	0x3d41f361	0.047351245
109	0x3cd1d1da	0.02561276
110	0xbd698c67	-0.057018664
111	0x3cb33368	0.021875098
112	0x3c823d7a	0.015898455
113	0x3d40bddf	0.047056075
114	0xbcb26728	-0.021777704
115	0xbdb3d170	-0.087801814
116	0x3d02320b	0.031786006
117	0x3998869a	0.00029091985
118	0x3dbf6f33	0.093473814
119	0xbd3e8949	-0.046517644
120	0x3d50f167	0.05101147
121	0x3cc75e7d	0.024337048
122	0xbd001290	-0.031267703
123	0x3ceb39da	0.02871411
124	0x3d9799ca	0.0740238
125	0x3e1a9d52	0.15099075
126	0x3d385c8a	0.045010127
127	0x3c640012	0.013916032
128	0xbd6057a7	-0.05477109
129	0x3d8a29fd	0.0674629
130	0x3c538e3e	0.012912331
131	0x3d58c9d7	0.052926864
132	0x3d359ab7	0.044337
133	0xbdb30951	-0.08742011
134	0xbc834e24	-0.016028471
135	0x3df5dd1e	0.120050654
136	0xbcef140c	-0.029184364
137	0xbcd22523	-0.025652474
138	0xbda3478f	-0.07972633
139	0x3c830c6d	0.015997136
140	0x3cd6125c	0.026131801
141	0xbdf426f8	-0.11921495
142	0x3d9c6b48	0.0763765
143	0x3c39f821	0.011350662
144	0xba6a2ee6	-0.000893338
145	0x3cb310e0	0.021858633
146	0xbd1895b1	-0.03725213
147	0x3d927756	0.07151668
148	0xbcdfae2e	-0.027304735
149	0xbd1cd823	-0.03829206
150	0x3e00e5c1	0.12587644
151	0x3d0c7c3e	0.034298174
152	0x3ca56763	0.0201909
153	0xbdc76992	-0.09736933
154	0x3d868d01	0.06569863
155	0xbc6bf087	-0.014400608
156	0x3d5960ef	0.05307096
157	0x3d446103	0.04794408
158	0x3c81ce40	0.015845418
159	0x3ce08ac3	0.027409917
160	0xbd66492d	-0.05622213
161	0x3d1f87c4	0.038947836
162	0xbdefa8dc	-0.11702129
163	0x3e31bef9	0.17358007
164	0xbd4b1c44	-0.049587503
165	0x3e287036	0.16449055
166	0xbd302f42	-0.04301382
167	0xbdb7f3e0	-0.08982062
168	0xbc56a6f5	-0.013101329
169	0xbd71b405	-0.05900957
170	0x388a6274	6.598691e-05
171	0x3d203877	0.03911635
172	0x3b64cb17	0.003491109
173	0x3da6d444	0.08145955
174	0x3dbc4050	0.09191954
175	0xbd0c0553	-0.034184765
176	0x3db4e886	0.08833413
177	0xbd21a336	-0.03946229
178	0xbd4d0b16	-0.0500594
179	0x3d8ebcef	0.0696963
180	0xbdb25d7a	-0.087092355
181	0x3d0d5d93	0.034513067
182	0xba3b06e6	-0.0007134512
183	0x3d8eef59	0.06979246
184	0xbcef2fc6	-0.029197585
185	0x3df24777	0.11830037
186	0xbd0316d8	-0.032004207
187	0xbb0b7aae	-0.002128284
188	0x3d62f29a	0.055407144
189	0x3d846b98	0.064658344
190	0x3bed37c8	0.0072393157
191	0xbc0f6e21	-0.008754284
192	0x3d66c54a	0.056340493
193	0x3cc64dda	0.024207044
194	0xbd190038	-0.037353724
195	0xbdfdefd4	-0.12399259
196	0xbdf895f4	-0.12137976
197	0xbccbd405	-0.024881372
198	0x3d1dd013	0.038528513
199	0x3ccfb47b	0.025354614
200	0x3b49b1df	0.0030776185
201	0x3d0c7be7	0.03429785
202	0xbd0c82ce	-0.034304433
203	0xbcda2f3b	-0.02663385
204	0x3c8f078b	0.017459651
205	0x3ce8cdfc	0.028418534
206	0xbda110ea	-0.07864554
207	0xbdc8f297	-0.09811895
208	0xbdd203eb	-0.102546535
209	0x3c93fba8	0.018064335
210	0x3dab6e5c	0.08370659
211	0x3b6f458b	0.0036509957
212	0xbd3556d5	-0.044272263
213	0xbdd74d0c	-0.105127424
214	0xbd0e9de4	-0.034818545
215	0x3d80fd2a	0.06298287
216	0x3d8672c6	0.0656486
217	0xbdd05523	-0.101724885
218	0x3d1c89eb	0.038217466
219	0x3dab2fbb	0.08358713
220	0x3d340fcc	0.043960378
221	0xbc761e74	-0.015021909
222	0x3cf163af	0.029466478
223	0xbdebcde1	-0.11513878
224	0xbcc0ce83	-0.023535972
225	0x3da09658	0.07841176
226	0xbcbc1d8a	-0.022963304
227	0xbc9d4a4a	-0.019200463
228	0xbd0f6d4c	-0.035016343
229	0xbd9b1001	-0.07571412
230	0x3d41c5aa	0.047307648
231	0xbcda5404	-0.02665139
232	0x3ca8c0a7	0.020599676
233	0x3c653030	0.01398854
234	0xbc47706a	-0.012172798
235	0xbd483d02	-0.048886307
236	0x3d0ae876	0.0339131
237	0x3cde2a22	0.0271197
238	0xbd670a16	-0.056406103
239	0xbc453a10	-0.012037769
240	0xbcde8080	-0.027160883
241	0x3d962399	0.073310085
242	0x3d5c2ca4	0.05375351
243	0xbd373b53	-0.04473431
244	0xbccfb657	-0.025355501
245	0xbd3b4ce6	-0.045727633
246	0xbcfc91ea	-0.030831296
247	0xbc93bce8	-0.018034413
248	0x3c551386	0.013005143
249	0xbbbb878f	-0.005722947
250	0x3d45374b	0.048148435
251	0xbd5a9a1a	-0.05336962
252	0xbd3b3d8f	-0.045713004
253	0x3d945559	0.07242841
254	0x3e05d6ba	0.13070193
255	0x3db07d29	0.086176224
