best_baseline_model.pt (torch, 291191 bytes, 6 tensors)

weight f4 [339, 40]
-0.08844085 -0.044601128 -0.18868439 0.09249315 -0.19576229 0.035067085 -0.12903433 -0.14398794
0.24141976 0.10261531 -0.2599983 0.055241346 0.095321044 -0.15184899 -0.031484593 0.08637115
-0.039473113 -0.043826923 -0.15768136 -0.092439584 -0.10068812 -0.20247887 -0.19096327 0.041031953
-0.105128884 0.0010343972 0.011997746 -0.009121355 -0.06732884 0.037297476 -0.03309179 0.00062355114
-0.07009721 0.09153221 0.058556445 -0.0010969854 -0.07508382 0.14353478 0.051395897 -0.061572038
0.083176374 0.06381993 0.0421168 -0.029022878 -0.16157326 0.06293119 -0.12063834 0.5645836
0.5163399 0.071058184 -0.22057156 0.03738309 -0.023424543 -0.3045872 -0.17163555 0.030210815
-0.260463 -0.0077944226 -0.02043309 -0.3474323 -0.76403475 -0.09115806 0.17297788 -0.05292601
-0.045984842 -0.11809988 0.15974091 -0.23716792 0.03394934 -0.004517582 0.040675323 -0.044970974
-0.0029626125 0.06632741 0.10729235 -0.23108917 0.027862094 0.3671852 0.03379549 -0.043784987
0.13295907 0.05294333 0.12466018 -0.057350103 -0.06155716 -0.07667865 0.086501054 0.0439638
-0.019928537 -0.031378224 0.030486353 0.0947604 0.024464758 -0.15602398 -0.0010010634 -0.063999556
-0.08056823 -0.12944922 -0.10475384 0.07435339 -0.8323916 -0.052915193 -0.050568037 0.04273346
0.12940153 -0.17730576 0.19008665 -0.008041183 0.022153143 0.07753782 0.06363487 0.047147
0.044227764 -0.031354956 -0.097428 -0.10843227 -0.042060886 -0.22363798 -0.12938587 -0.085210815
-0.20091113 -0.053665143 -0.16362102 0.044190213 0.093740076 -0.1995765 0.09603013 0.040756304
0.17882413 -0.0896745 -0.21388052 -0.04578797 -0.22348619 -0.09501176 -0.30310905 -0.06900112
0.05548778 -0.17430133 -0.16730417 -0.13164708 0.54361886 0.055732306 -0.18328544 0.013601053
-0.14175974 0.08066091 -0.049545817 -0.24287698 -0.05370295 -0.10471458 0.0850571 -0.18714216
0.15280981 0.058496 -0.15627052 -0.19241947 -0.07719521 -0.04488252 0.12083996 -0.07613964
-0.06793593 0.12883273 -0.11311094 0.09402732 0.10230231 -0.1431323 -0.17514654 -0.19017951
0.896753 0.1933386 -0.82138145 -0.23947993 -0.5135767 -0.20640862 0.14744146 0.011141315
0.07233959 -0.032158576 -0.04434671 -0.13792886 -0.2230904 0.0028216792 0.095292926 -0.05020587
0.13275632 0.067341566 -0.56136376 0.3223302 0.08660828 -0.08837432 0.13878614 -0.027471727
-0.3185756 -0.108400114 0.15989397 -0.030539831 0.412776 0.16374148 -0.08762564 -0.024819829
-0.18967858 -0.28079775 -0.21775754 -0.23804869 -0.017977644 0.0031660271 -0.11378481 -0.05121845
-0.041838277 -0.1317398 0.82407427 -0.24611014 -0.30811837 -0.17825124 -0.044098433 -0.1617197
-0.0060826326 0.012315681 -0.21532269 -0.13163912 0.067034155 -0.16502431 -0.091720976 -0.039198767
-0.09786101 -0.508462 0.06916503 0.02889602 -0.21039432 -0.28500667 -0.08681761 -0.110434525
0.04630318 -0.104075 -0.15667897 0.27728927 -0.020119127 -0.95169556 -0.0035153832 -0.22637253
-0.0010644349 -0.029145783 -0.11272591 -0.054106675 -0.15216425 -0.036448393 0.109296866 0.13550678
0.17482364 0.08825021 0.29156667 -0.01203021 0.10580496 -0.18609148 -0.039463844 -0.14137879
00000000: 7a20 b5bd acaf 36bd 7b36 41be 0c6d bd3d
00000010: e975 48be 81a2 0f3d 9321 04be 9371 13be
00000020: be36 773e fa27 d23d 7f1e 85be c044 623d
00000030: ae37 c33d 4d7e 1bbe fdf5 00bd 5ce3 b03d
00000040: 8fae 21bd dc83 33bd 3977 21be f750 bdbd
00000050: 9335 cebd 9f56 4fbe e08b 43be 1f11 283d
00000060: d04d d7bd 9c94 873a 3292 443c bc71 15bc
00000070: b4e3 89bd 3dc5 183d 428b 07bd cf75 233a
00000080: 208f 8fbd 3d75 bb3d e2d8 6f3d b9c8 8fba
00000090: 8cc5 99bd c8fa 123e 8184 523d f632 7cbd
000000a0: 6058 aa3d 06b4 823d aa82 2c3d 63c1 edbc
000000b0: 7673 25be 11e2 803d 3c11 f7bd 8d88 103f
000000c0: da2e 043f f486 913d 83dd 61be 031f 193d
000000d0: d4e4 bfbc daf2 9bbe 3bc1 2fbe ac7c f73c
000000e0: 685b 85be 5b68 ffbb 4c63 a7bc a5e2 b1be
000000f0: c897 43bf 14b1 babd 1d21 313e f2c8 58bd
00000100: 9a5a 3cbd 5ade f1bd 1f93 233e 26dc 72be
00000110: 770e 0b3d 3908 94bb 2b9b 263d 7c33 38bd
00000120: 6428 42bb aad6 873d 17bc db3d a4a2 6cbe
00000130: 0c3f e43c b3ff bb3e 246d 0a3d e357 33bd
00000140: 6c26 083e 1bdb 583d d64d ff3d f1e7 6abd
00000150: 5c23 7cbd b209 9dbd 7727 b13d 6313 343d
00000160: 2c41 a3bc 7486 00bd 84be f93c be11 c23d
00000170: 516a c83c c0c4 1fbe 1d36 83ba 3312 83bd
00000180: f500 a5bd 568e 04be 2e89 d6bd 9746 983d
00000190: 9e17 55bf 9abd 58bd 6e20 4fbd 4809 2f3d
000001a0: d681 043e a48f 35be 13a6 423e 2bbf 03bc
000001b0: 827a b53c 26cc 9e3d 0053 823d 361d 413d
000001c0: 2c28 353d 0e6e 00bd 5588 c7bd bd11 debd
000001d0: 0948 2cbd 5b01 65be bb7d 04be 0283 aebd
000001e0: a6bb 4dbe fbcf 5bbd 458c 27be cc00 353d
000001f0: ccfa bf3d c85d 4cbe 72ab c43d 15f0 263d
00000200: ac1d 373e 44a7 b7bd 7f03 5bbe 2b8c 3bbd
00000210: 90d9 64be 8795 c2bd 1c31 9bbe 7650 8dbd
00000220: 2847 633d 0c7c 32be c951 2bbe 7ece 06be
00000230: 9b2a 0b3f 8f47 643d 2eaf 3bbe f3d6 5e3c
00000240: 7729 11be 8c31 a53d 8ef0 4abd beb4 78be
00000250: a0f7 5bbd 9974 d6bd 6b32 ae3d 32a2 3fbe
00000260: 2d7a 1c3e 8099 6f3d 6105 20be 9c09 45be
00000270: 8618 9ebd bcd6 37bd f17a f73d 19ef 9bbd
00000280: fe21 8bbd baec 033e b5a6 e7bd 6591 c03d
00000290: e083 d13d 4691 12be 9d59 33be 6bbe 42be
000002a0: 9b91 653f 8efa 453e 0e46 52bf 3a3a 75be
000002b0: c379 03bf c85c 53be e5fa 163e 108a 363c
000002c0: c726 943d b6b8 03bd e5a4 35bd 393d 0dbe
000002d0: cf71 64be eceb 383b f028 c33d aca4 4dbd
000002e0: 46f1 073e 60ea 893d 89b5 0fbf 7708 a53e
000002f0: af5f b13d 98fd b4bd f41d 0e3e 630c e1bc
00000300: 571c a3be e100 debd 3fbb 233e ab2e fabc
00000310: 6057 d33e d9ab 273e 1275 b3bd f452 cbbc
00000320: 1a3b 42be b9c4 8fbe d5fb 5ebe 09c3 73be
00000330: da45 93bc 1f7d 4f3b 0308 e9bd 70ca 51bd
00000340: 9d5e 2bbd cce6 06be 88f6 523f 4c04 7cbe
00000350: b1c1 9dbe 7e87 36be 8fa0 34bd d999 25be
00000360: d250 c7bb b6c7 493c 8d7d 5cbe 68cc 06be
00000370: 3449 893d 22fc 28be 35d8 bbbd e38e 20bd
00000380: 5a6b c8bd 912a 02bf 65a6 8d3d 59b7 ec3c
00000390: 9c71 57be 65ec 91be 6ecd b1bd 7f2b e2bd
000003a0: 67a8 3d3d 4625 d5bd 7470 20be dcf8 8d3e
000003b0: ded0 a4bc 52a2 73bf 5862 66bb 33ce 67be
000003c0: 8284 8bba 23c3 eebc d8dc e6bd f69e 5dbd
000003d0: f2d0 1bbe e94a 15bd 09d7 df3d 4ac2 0a3e
000003e0: f804 333e 87bc b43d 3a48 953e 5c1a 45bc
000003f0: 45b0 d83d c48e 3ebe d7a4 21bd 9ac5 10be

bias f4 [339]
-0.12512277 0.14682938 -0.029677443 0.089762576 0.02286495 -0.019905034 -0.07983767 0.054264788
-0.1902268 -0.15951526 -0.16577879 0.16789164 -0.066086136 0.02157831 -0.11876813 0.029473774
0.033290733 0.22679171 -0.14804788 -0.1337569 -0.09338368 0.0100603 0.06904563 -0.09781941
0.04039785 -0.053687003 -0.02889062 0.09804713 -0.055110116 0.05568789 -0.020113021 -0.22408867
0.03448817 0.10017992 -0.08358508 -0.25463098 -0.12276097 -0.13001987 -0.049629256 0.0017256868
-0.15254807 0.040399205 0.18684013 0.12842773 0.16420022 -0.062808834 -0.09427835 0.009770373
0.045791328 -0.4480402 0.12298344 0.25738263 0.0040683113 0.013422335 0.07214603 -0.10032667
-0.15939899 0.048949063 0.14158227 0.022607537 -0.10053512 0.15469918 0.07225001 0.104339264
0.20365539 -0.036009397 -0.26035318 0.06421312 0.120225325 0.1243639 0.05270519 0.16891389
0.048041444 -0.007932827 0.08438579 0.043892346 -0.028630929 0.05544853 0.052523576 -0.032979473
-0.03343165 -0.1479174 0.01347325 -0.1392109 0.095052384 0.029382097 0.057607878 0.21008386
-0.08872926 -0.13097154 0.12907013 0.0040717446 -0.2281253 -0.039240707 -0.08090115 0.081397906
-0.03100239 -0.042194646 0.21139146 0.3107083 0.18620701 0.07051622 0.09797908 0.045260686
-0.11123121 -0.023030205 -0.19545713 0.0012898357 0.120247066 0.10825826 -0.114386 0.0091204485
0.049051635 0.14661303 0.07239719 0.13174306 0.0665527 0.13884543 -0.011894665 0.23384966
-0.026975483 -0.046383105 -0.079931326 -0.038913764 -0.091619946 -0.37179613 -0.018696945 0.14471512
-0.28932053 -0.18158801 -0.0142165795 0.1805169 -0.104184985 0.0924941 -0.050233047 0.048153065
0.072880685 -0.07022108 -0.076575115 0.07164584 -0.04317167 -0.053879254 0.024788383 0.027388327
-0.117668435 -0.06610881 0.061278127 -0.04941859 -0.042375512 0.15047608 0.03482146 0.11344999
0.1383226 0.16282438 0.025690384 0.082744434 -0.10405373 -0.4097745 0.13032758 0.0903742
0.0055531235 0.049688715 -0.056967318 0.07117508 -0.050023746 -0.18407325 0.09286822 -0.16565841
0.10658446 0.018602785 0.009028521 -0.014117348 0.041262757 -0.32836965 0.01630942 0.056805
0.10376249 0.02154518 0.041726585 -0.0288144 -0.23036084 0.1323662 0.029947568 -0.16638245
0.002519998 -0.13882014 -0.0946908 -0.002292134 -0.21215376 0.15320703 0.19980848 0.08396242
0.036477953 -0.23481514 0.1010199 -0.031117566 0.15960881 0.010615649 0.0009064045 -0.0061751176
0.06366626 0.049866337 0.055172198 0.029217353 -0.05754112 0.32757705 -0.045369145 -0.22203769
0.18026346 -0.12609331 -0.08987605 0.17811194 -0.21354859 0.13435057 0.19186772 -0.030828718
0.030995782 -0.2943909 -0.07094374 -0.005070754 0.03381275 0.08058001 0.0121654775 0.16635674
0.025562024 0.041429717 -0.028463716 -0.11567497 0.13635832 0.075220935 0.14417994 0.16695465
0.14871727 -0.13067456 -0.07753188 0.21969816 0.035946816 -0.22476867 0.21835229 -0.08977664
0.17607507 -0.054442897 0.12662712 0.23220152 -0.18148556 0.15564343 -0.034287628 0.07221776
-0.2252669 0.18204005 0.09103754 0.022677988 0.051080335 -0.0050816047 -0.04826951 -0.07762971
00000000: 2f20 00be 715a 163e 1c1e f3bc 71d5 b73d
00000010: 474f bb3c e20f a3bc ef81 a3bd c144 5e3d
00000020: d0ca 42be f857 23be eac1 29be c9eb 2b3e
00000030: 2b58 87bd ffc4 b03c b53c f3bd fc72 f13c
00000040: dd5b 083d 163c 683e dd99 17be 92f7 08be
00000050: f13f bfbd f5d3 243c cc67 8d3d 8b55 c8bd
00000060: 3778 253d e7e6 5bbd 06ac ecbc efcc c83d
00000070: 25bb 61bd fc18 643d 10c4 a4bc 8077 65be
00000080: 7843 0d3d 212b cd3d a82e abbd fe5e 82be
00000090: 1a6a fbbd ee23 05be 0c48 4bbd 7130 e23a
000000a0: 9035 1cbe a379 253d 0553 3f3e 8f82 033e
000000b0: 1a24 283e eba1 80bd 0215 c1bd ea13 203c
000000c0: b08f 3b3d 8665 e5be bede fb3d a8c7 833e
000000d0: 784f 853b 5ae9 5b3c 4cc1 933d 1278 cdbd
000000e0: 7d39 23be d07e 483d f1fa 103e 7133 b93c
000000f0: 5be5 cdbd 7669 1e3e d0f7 933d d3af d53d
00000100: 0a8b 503e 977e 13bd 034d 85be 2b82 833d
00000110: b238 f63d 80b2 fe3d 66e1 573d c3f7 2c3e
00000120: 1bc7 443d b0f8 01bc 75d2 ac3d 76c8 333d
00000130: 698b eabc ff1d 633d f622 573d 7c15 07bd
00000140: a0ef 08bd a977 17be e8be 5c3c 4d8d 0ebe
00000150: d3aa c23d b9b2 f03c 3df6 6b3d 3920 573e
00000160: b0b7 b5bd 671d 06be f62a 043e 456c 853b
00000170: ae99 69be ddba 20bd 81af a5bd f2b3 a63d
00000180: b9f8 fdbc 4bd4 2cbd 0177 583e 2915 9f3e
00000190: 0dad 3e3e cf6a 903d 42a9 c83d 4563 393d
000001a0: 30cd e3bd d7a9 bcbc ea25 48be b40f a93a
000001b0: 1844 f63d 82b6 dd3d 3543 eabd ef6d 153c
000001c0: 5eea 483d ba21 163e fa44 943d a7e7 063e
000001d0: c84c 883d 7f2d 0e3e d7e1 42bc 4976 6f3e
000001e0: b0fb dcbc 36fc 3dbd 09b3 a3bd 0a64 1fbd
000001f0: 3da3 bbbd 105c bebe 562a 99bc 3330 143e
00000200: d221 94be 35f2 39be a8ec 68bc 6cd9 383e
00000210: f05e d5bd 8c6d bd3d 2bc1 4dbd 263c 453d
00000220: 7842 953d 12d0 8fbd 6ad3 9cbd 0ebb 923d
00000230: c7d4 30bd 7eb0 5cbd 0211 cb3c 7c5d e03c
00000240: 26fc f0bd 0e64 87bd c6fe 7a3d 266b 4abd
00000250: f291 2dbd 6716 1a3e f2a0 0e3d 7858 e83d
00000260: 71a4 0d3e 6fbb 263e a474 d23c ea75 a93d
00000270: 1f1a d5bd f7cd d1be 9874 053e 1c16 b93d
00000280: faf6 b53b 6586 4b3d 9056 69bd 3ec4 913d
00000290: b3e5 4cbd b37d 3cbe b131 be3d 5ca2 29be
000002a0: f448 da3d de64 983c 5dec 133c 734c 67bc
000002b0: 2303 293d 1120 a8be 559b 853c 5cac 683d
000002c0: 6e81 d43d 847f b03c 7fe9 2a3d 2d0c ecbc
000002d0: b6e3 6bbe 018b 073e 9a54 f53c 2960 2abe
000002e0: 8d26 253b de26 0ebe 40ed c1bd a137 16bb
000002f0: d63e 59be 4ee2 1c3e 989a 4c3e 7df4 ab3d
00000300: e869 153d 6173 70be 85e3 ce3d 44ea febc
00000310: 7e70 233e 42ed 2d3c c79b 6d3a a458 cabb
00000320: 7563 823d a540 4c3d 3efc 613d 3b59 ef3c
00000330: 3db0 6bbd 2eb8 a73e ffd4 39bd d95d 63be
00000340: fc96 383e 9b1e 01be ef10 b8bd fa62 363e
00000350: 7bac 5abe 3293 093e f978 443e 828c fcbc
00000360: deea fd3c 67ba 96be f44a 91bd 9128 a6bb
00000370: 3d7f 0a3d 2207 a53d b651 473c 6c59 2a3e
00000380: 7367 d13c 35b2 293d bd2c e9bc 00e7 ecbd
00000390: 84a1 0b3e 6f0d 9a3d e8a3 133e 29f6 2a3e
000003a0: 5749 183e 8dcf 05be 09c9 9ebd 8ef8 603e
000003b0: f83c 133d c229 66be be97 5f3e d1dc b7bd
000003c0: 064d 343e 84ff 5ebd 8aaa 013e 3cc6 6d3e
000003d0: 5ad7 39be fe60 1f3e 2f71 0cbd e8e6 933d
000003e0: 5eac 66be b568 3a3e e471 ba3d 30c7 b93c
000003f0: 9d39 513d 9783 a6bb 40b6 45bd 53fc 9ebd

weight f4 [169, 339]
-0.023538573 0.017807117 0.0013814315 0.030370198 -0.08796643 0.11512186 -0.03819774 0.032972313
0.017187051 -0.10074656 0.06744761 -0.022134611 0.040992267 -0.0042604627 0.091557875 -0.106689
0.0053181937 -0.121370904 -0.0073866723 0.035377353 0.0039238124 -0.039914995 -0.07828786 0.011292278
-0.11917018 0.0040729484 0.009297042 0.049107943 0.045732684 -0.045398857 -0.023610013 -0.06711153
0.07353317 -0.03573576 0.07379128 0.097405456 0.04594561 -0.07215642 -0.026846718 -0.06025871
-0.054508828 -0.012559477 -0.11282664 0.032827705 -0.007858782 -0.05154463 0.11581226 0.08617321
0.0696122 0.046536557 0.045719374 0.020993324 -0.008471157 -0.12052662 0.13163741 -0.0381215
-0.015962819 -0.041034818 -0.050387572 -0.1322834 0.022488562 0.023557633 0.0043616462 -0.0023800556
0.0065293233 -0.036291536 -0.026238553 -0.047480445 -0.05489673 -0.014701402 -0.033742983 -0.096610755
-0.01734769 0.093735844 -0.08247162 0.042914867 0.118046604 0.025838837 0.005650548 0.11194908
-0.034866527 0.0146879 0.03381809 0.07806174 0.044343956 -0.0352875 -0.051005535 -0.06612942
-0.07744534 -0.041374587 -0.033132005 0.051540382 -0.040555112 -0.0046986695 -0.03825579 0.05715601
-0.02247924 -0.051835503 -0.1176586 -0.08767229 -0.062973626 0.025585635 -0.08882618 -0.0121871075
0.015357244 0.004768326 -0.07980635 -0.011384514 -0.027174346 0.036811624 -0.022875907 0.08663441
0.03342895 -0.046943422 0.073666774 -0.022310266 -0.0011686708 -0.036578957 -0.07407389 0.114138775
-0.03553794 0.027807608 -0.07231892 -0.01979421 0.020683566 0.050654206 -0.022639625 -0.11820609
0.10403822 -0.06326588 -0.02814262 -0.022284193 -0.0063094147 0.015227876 0.019157765 -0.07935319
0.08681193 -0.043722663 0.047822267 -0.023773925 0.030924225 0.011751233 0.015081604 -0.048377544
-0.03613802 0.016532563 0.055415027 0.008443401 -0.00776745 -0.03106848 0.07748449 -0.019263862
-0.025599552 -0.030147163 0.037979063 -0.040944595 0.039691325 0.057382796 0.03379487 0.06353284
0.07278484 0.010143263 0.11343981 -0.12376974 0.007519078 0.05053505 -0.018729644 -0.013987782
0.029251883 0.030773835 -0.049947754 0.11140132 0.010772218 0.07491665 0.005007451 -0.011365187
-0.0858114 -0.058430154 -0.054045055 -0.08534836 -0.086862296 -0.1258061 -0.08068891 -0.022067225
-0.007020051 0.038345244 -0.028215643 0.078614265 0.08294731 -0.031254895 -0.024188155 0.029599335
-0.051634427 -0.042641994 -0.07297611 -0.034659635 -0.015701335 -0.019831182 0.03507277 -0.06621139
-0.040705167 -0.124770924 0.008511091 0.028446887 0.012375121 -0.02719664 0.003164295 -0.040928558
-0.09775705 -0.0011070019 0.014474033 -0.006349543 0.06316801 0.08175717 -0.027548926 -0.018675324
-0.0055679386 0.12354168 0.024717377 -0.03940414 -0.009715813 0.0356939 0.08364 0.02197947
0.014738687 0.0039489134 -0.055900436 0.081093915 0.051773474 -0.027180802 -0.07683547 -0.027032793
0.024155866 0.015199449 0.106337935 -0.07585405 0.006089755 0.024349175 -0.06803039 0.038461138
-0.034706 0.04871465 -0.07066025 0.074783444 -0.0819796 -0.013163102 -0.032911103 0.023424223
-0.08164828 -0.008695589 0.04355086 0.02852438 -0.0031661117 0.01863833 -0.12346011 0.01841205
00000000: f7d3 c0bc 3be0 913c 2611 b53a ecca f83c
00000010: be27 b4bd 02c5 eb3d 3c75 1cbd fa0d 073d
00000020: dccb 8c3c 3654 cebd f921 8a3d a553 b5bc
00000030: 82e7 273d 5a9b 8bbb b282 bb3d c37f dabd
00000040: 3e44 ae3b 4f91 f8bd e60b f2bb d8e7 103d
00000050: 5393 803b e87d 23bd 6355 a0bd 3f03 393c
00000060: 7f0f f4bd 5e76 853b 9f52 183c 6925 493d
00000070: 3252 3b3d 27f4 39bd c969 c1bc c571 89bd
00000080: 8f98 963d a95f 12bd e21f 973d 837c c73d
00000090: 7731 3c3d bfc6 93bd a6ed dbbc d6d1 76bd
000000a0: a644 5fbd 44c6 4dbc a711 e7bd 5876 063d
000000b0: 1fc2 00bc 7620 53bd fa2e ed3d 947b b03d
000000c0: d790 8e3d 1e9d 3e3d 3d44 3b3d 31fa ab3c
000000d0: 9cca 0abc a9d6 f6bd f5cb 063e 4a25 1cbd
000000e0: 75c4 82bc 2014 28bd 3363 4ebd 4d75 07be
000000f0: ef39 b83c f0fb c03c 24ec 8e3b b5fa 1bbb
00000100: eff3 d53b 6fa6 14bd 3cf2 d6bc db7a 42bd
00000110: 65db 60bd 26de 70bc 1536 0abd dcdb c5bd
00000120: be1c 8ebc 94f8 bf3d e1e6 a8bd 80c7 2f3d
00000130: 6bc2 f13d f8ab d33c 3b28 b93b 8f45 e53d
00000140: 34d0 0ebd 85a5 703c d684 0a3d d5de 9f3d
00000150: 02a2 353d a089 10bd 2eeb 50bd dd6e 87bd
00000160: aa9b 9ebd 6678 29bd 6db5 07bd 021c 533d
00000170: 1e1d 26bd 4cf7 99bb 1ab2 1cbd 6c1c 6a3d
00000180: 6226 b8bc 7751 54bd fef6 f0bd 888d b3bd
00000190: 51f8 80bd f798 d13c 80ea b5bd 6fac 47bc
000001a0: f39c 7b3c 9e3f 9c3b 8371 a3bd 1d86 3abc
000001b0: bc9c debc c9c7 163d 4166 bbbc 626d b13d
000001c0: cbec 083d bf47 40bd 9bde 963d 05c4 b6bc
000001d0: 162e 99ba d1d3 15bd 0db4 97bd 97c1 e93d
000001e0: 3b90 11bd c8cc e33c f11b 94bd 7827 a2bc
000001f0: 9570 a93c c97a 4f3d bc76 b9bc 0916 f2bd
00000200: fe11 d53d 8b91 81bd 5a8b e6bc 578d b6bc
00000210: 35bf cebb 577e 793c bff0 9c3c ed83 a2bd
00000220: 74ca b13d 8916 33bd 48e1 433d 89c1 c2bc
00000230: cd54 fd3c 3e88 403c d518 773c 8827 46bd
00000240: 7605 14bd 4c6f 873c defa 623d 3156 0a3c
00000250: 1886 febb 5383 febc 30b0 9e3d 3fcf 9dbc
00000260: 27b6 d1bc 2ff7 f6bc ef8f 1b3d 85b5 27bd
00000270: 5f93 223d 390a 6b3d 7d6c 0a3d 811d 823d
00000280: 3810 953d ee2f 263c 2253 e83d fd7a fdbd
00000290: 9962 f63b d7fd 4e3d e96e 99bc 032d 65bc
000002a0: a5a1 ef3c 6919 fc3c 0496 4cbd 6026 e43d
000002b0: f57d 303c e76d 993d 8b15 a43b 0d35 3abc
000002c0: e3bd afbd 7554 6fbd 595e 5dbd 1fcb aebd
000002d0: dce4 b1bd 50d3 00be 3a40 a5bd 53c6 b4bc
000002e0: 7508 e6bb e70f 1d3d 7e24 e7bc 8400 a13d
000002f0: 47e0 a93d 2205 00bd 3d26 c6bc 4e7a f23c
00000300: 9f7e 53bd 5fa9 2ebd 8074 95bd 43f7 0dbd
00000310: 16a0 80bc 0175 a2bc 77a8 0f3d d699 87bd
00000320: 76ba 26bd e687 ffbd 1a72 0b3c 7209 e93c
00000330: 05c1 4a3c 7dcb debc 1060 4f3b b4a4 27bd
00000340: d934 c8bd d218 91ba 7f24 6d3c d40f d0bb
00000350: 3b5e 813d 4e70 a73d 49ae e1bc fefc 98bc
00000360: 4173 b6bb 6c03 fd3d 197c ca3c 3c66 21bd
00000370: 132f 1fbc c433 123d 734b ab3d 4a0e b43c
00000380: 897a 713c e365 813b dbf7 64bd 9114 a63d
00000390: 6c10 543d 46aa debc ea5b 9dbd e073 ddbc
000003a0: 86e2 c53c 1c07 793c b4c7 d93d 5e59 9bbd
000003b0: 918c c73b ec77 c73c 8453 8bbd 6d89 1d3d
000003c0: e127 0ebd 0389 473d 52b6 90bd 1028 993d
000003d0: ece4 a7bd 0daa 57bc cbcd 06bd 28e4 bf3c
000003e0: 3737 a7bd f277 0ebc 6362 323d f6ab e93c
000003f0: 8a7e 4fbb 69af 983c a7d8 fcbd ded4 963c

bias f4 [169]
-0.06922665 0.0060411724 -0.04557322 -0.08193055 -0.0647252 0.01637365 -0.06955994 0.02584633
-0.040705256 2.5503454e-05 0.10505405 0.031822097 -0.06373481 -0.044510942 0.114036255 -0.16747741
-0.0889275 -0.041749693 0.0015951551 0.103216276 -0.056630563 -0.08225511 0.29695657 -0.027691593
-0.05351846 0.04145005 0.10826169 -0.029584281 0.050078936 0.027644403 0.122463346 -0.088116646
0.11074194 0.0138138775 0.06455148 -0.07156027 -0.0067267832 0.07456343 0.057199318 -0.052035667
0.07351462 -0.00687838 0.08848332 0.29947785 -0.12859717 0.16888446 0.1502802 -0.011396621
0.07970978 0.07743249 0.08561917 0.08685986 0.24179944 0.0149819115 0.2290888 0.0064425236
0.23059897 -0.042693686 0.107998505 0.1913373 -0.07263738 -0.0028339857 -0.054051496 0.17190918
0.0043214727 0.48118636 0.15028498 -0.069036804 0.09831105 0.044323403 -0.035252843 0.072556406
-0.023144744 0.07491808 -0.06958337 0.10141708 -0.050012715 -0.1798538 -0.026702864 0.123308785
-0.03683454 -0.021945609 -0.0038292322 -0.04695032 0.35964188 0.01183559 0.14936206 -0.023563888
0.049910944 0.2489709 -0.048607986 -0.029091943 0.09963995 0.012055351 0.09031641 -0.05896064
-0.032486375 -0.09400257 0.14752783 0.3255101 -0.037423287 -0.05756566 0.25359473 -0.053781785
0.004085917 0.54264545 -0.03327899 -0.07606552 0.15746774 -0.17221029 -0.07240906 -0.026419587
-0.025933692 -0.10459632 -0.06591666 -0.00022919301 -0.083807915 0.12894242 0.002805118 -0.036772788
-0.038044583 0.3013693 -0.036396306 0.11509826 -0.052484512 -0.036124203 0.08475568 0.0728468
0.09273281 -0.031319834 -0.154611 -0.035277873 -0.052151773 -0.033828642 -0.014157539 -0.28689852
-0.18677597 0.17724955 -0.03396412 -0.02640731 0.18042819 0.006294711 -0.07816854 0.2934466
0.25685075 0.0002869745 -0.023262475 -0.092054084 0.4681411 0.21387692 -0.05499685 -0.07344482
-0.14854226 -0.03874052 -0.0030326315 -0.16932666 0.08921097 0.05477928 0.0066870376 0.23545478
-0.07889379 -0.079786696 0.08001833 -0.01814933 -0.02555066 -0.037661057 0.14279608 0.022025596
0.04836514
00000000: b4c6 8dbd 07f5 c53b fcaa 3abd 34cb a7bd
00000010: a58e 84bd 0822 863c 7175 8ebd afbb d33c
00000020: 8eba 26bd 40f0 d537 9426 d73d e357 023d
00000030: 6587 82bd 1b51 36bd d78b e93d 337f 2bbe
00000040: 9f1f b6bd ba01 2bbd 8614 d13a 0e63 d33d
00000050: 73f5 67bd 5e75 a8bd b10a 983e 7bd9 e2bc
00000060: 2c36 5bbd 87c7 293d 4eb8 dd3d bc5a f2bc
00000070: 921f 4d3d 8476 e23c 10ce fa3d 8076 b4bd
00000080: accc e23d 9a53 623c 9133 843d 318e 92bd
00000090: 596c dcbb b6b4 983d d549 6a3d 5a23 55bd
000000a0: d58e 963d 0964 e1bb be36 b53d 2955 993e
000000b0: faae 03be 0cf0 2c3e 0ee3 193e e5b8 3abc
000000c0: e23e a33d ed94 9e3d 1a59 af3d 95e3 b13d
000000d0: 469a 773e b176 753c 4196 6a3e ce1b d33b
000000e0: 2322 6c3e 93df 2ebd 522e dd3d eded 433e
000000f0: e8c2 94bd 64ba 39bb 1a65 5dbd f608 303e
00000100: 249b 8d3b 0f5e f63e 4ee4 193e 2b63 8dbd
00000110: 4e57 c93d 758c 353d 4965 10bd 7498 943d
00000120: 0c9a bdbc a66e 993d ba81 8ebd c2b3 cf3d
00000130: 22da 4cbd 982b 38be f7bf dabc 5189 fc3d
00000140: d1df 16bd 47c7 b3bc dbf3 7abb fb4e 40bd
00000150: fb22 b83e 10ea 413c 5ef2 183e 0e09 c1bc
00000160: 6b6f 4c3d 3af2 7e3e 2b19 47bd 3a52 eebc
00000170: 0810 cc3d cf83 453c cff7 b83d b680 71bd
00000180: 6f10 05bd 6b84 c0bd 8911 173e 43a9 a63e
00000190: 2949 19bd f8c9 6bbd 2bd7 813e 4a4a 5cbd
000001a0: 28e3 853b d0ea 0a3f 8d4f 08bd 3dc8 9bbd
000001b0: 393f 213e e557 30be 344b 94bd e46d d8bc
000001c0: e572 d4bc 9836 d6bd 50ff 86bd 8853 70b9
000001d0: 7ca3 abbd 7b09 043e 12d6 373b 109f 16bd
000001e0: a3d4 1bbd 144d 9a3e 4b14 15bd a3b8 eb3d
000001f0: 00fa 56bd f9f6 13bd 6394 ad3d b430 953d
00000200: b3ea bd3d 3a49 00bd 5952 1ebe 887f 10bd
00000210: 199d 55bd e78f 0abd 06f5 67bc 5de4 92be
00000220: 3342 3fbe e880 353e f61d 0bbd 2554 d8bc
00000230: 2bc2 383e dd43 ce3b d416 a0bd a23e 963e
00000240: f181 833e 1175 9639 f290 bebc da86 bcbd
00000250: 31b0 ef3e 8d02 5b3e 6144 61bd 3d6a 96bd
00000260: 761b 18be 61ae 1ebd 1dbf 46bb f863 2dbe
00000270: 3eb4 b63d 3d60 603d f01e db3b 0f1b 713e
00000280: 1193 a1bd 3567 a3bd a6e0 a33d e7ad 94bc
00000290: 9e4f d1bc 7b42 1abd 2339 123e 066f b43c
000002a0: 861a 463d

weight f4 [2, 169]
0.027376195 0.13390343 0.10601271 0.034541253 0.08843733 -0.1267858 0.011287879 0.02230066
0.009172247 0.05434413 -0.06771655 0.03430035 -0.019727014 0.077743135 0.07048256 -0.08635761
0.008810461 0.041931488 0.022906803 -0.111841515 0.12943721 0.047374845 0.028690461 0.13370916
0.075012125 0.01900097 -0.14844456 0.05810196 0.07026915 0.060115315 -0.10555469 0.05293896
0.05725401 -0.022900887 0.046660844 -0.022626195 -0.13729165 -0.08470299 0.04153148 0.07001216
0.0098652 -0.052193604 0.0063078655 0.0058847857 -0.013915185 0.08842844 -0.14074509 0.029763704
0.059003428 0.0156143075 -0.013006545 -0.10743962 0.043354735 0.07880277 -0.021006675 0.04306137
0.06751566 0.010722493 0.07328692 -0.02437973 0.08073506 -0.02024866 -0.03603744 0.013736378
-0.00812613 0.057339597 0.04578402 0.06873275 0.035968307 0.050770745 -0.007672152 -0.1055438
-0.012726528 0.0064240224 0.0016390816 0.018302307 0.059231512 0.17528085 0.08033371 0.05539024
0.026593342 0.036979847 0.06601413 -0.02705822 0.01009473 0.04970314 0.0038680993 0.090769924
0.05524285 0.10276465 0.06804292 0.055180408 0.024892172 -0.005104831 0.041135836 -0.046949774
0.07877643 0.07851379 0.000724429 0.027439937 0.056072332 0.065537 0.04320936 0.06457036
0.14399506 0.0920183 0.0021581817 -0.021514945 0.04136229 -0.4286641 -0.03506695 0.17608327
0.022065476 0.028083168 0.1185664 0.013552643 -0.012643154 -0.15270263 0.028138006 0.0073836837
0.10468148 -0.019235654 0.038209036 0.02373195 -0.012507365 0.14768007 0.007380359 -0.04225423
0.05907379 0.007578263 0.2894793 0.058600802 -0.020681676 0.0073318495 0.117108114 -0.19595565
0.13220844 0.14050251 0.06677294 0.07649699 0.035629682 0.04002181 0.0468436 0.032394804
0.0062241056 0.026473124 0.12332345 0.09038957 0.20005882 0.06505272 0.081747875 0.01923158
0.04488759 0.056893736 0.10047437 0.17656898 -0.045085974 -0.10033953 0.017701996 0.30868712
0.020258028 0.035251826 0.040913343 0.07829901 0.04822573 0.04047438 0.056141503 -0.024108836
-0.14040531 -0.0109665375 0.028004045 0.031328235 0.043902583 0.021204814 -0.06549839 0.03286022
-0.16993739 -0.14098458 -0.15720387 -0.11609143 -0.045965705 -0.028088734 0.041803136 -0.27690503
0.096928515 0.0060552754 -0.009921769 -0.26300892 -0.08271787 0.1078389 0.0055306973 -0.47948164
0.038480286 0.02399081 -0.115899846 -0.09554776 0.0008967659 -0.037154507 -0.14444861 -0.102424026
0.041764885 -0.35685036 0.29585028 -0.15663365 -0.014186805 -0.0063252263 0.0015193399 -0.023069888
0.01825763 -0.06896404 -0.13008524 -0.20856687 -0.39709792 0.016203666 -0.17567518 -0.123372175
0.014690093 -0.1687745 -0.2958859 -0.15915586 -0.08829813 -0.43066722 0.02128987 -0.26965907
-0.075556144 -0.15609711 -0.0062393714 -0.2550279 -0.25379014 0.013541433 -0.008495313 0.38136578
-0.37363145 0.026970418 -0.39291918 -0.40544418 0.038051307 -0.3114357 0.010668807 0.037477404
-0.10149498 0.0027657063 -0.06767293 0.008932033 -0.13740721 0.0047276323 0.19245298 0.019972287
-0.23054619 0.0022902547 0.029655028 -0.008477268 0.034693245 -0.4606375 -0.100276835 -0.198268
00000000: 0b44 e03c fb1d 093e 311d d93d 217b 0d3d
00000010: a21e b53d 23d4 01be ccf0 383c e0af b63c
00000020: 3147 163c f397 5e3d f9ae 8abd 867e 0c3d
00000030: 8c9a a1bc cb37 9f3d 2959 903d 42dc b0bd
00000040: c059 103c 5ac0 2b3d 0ca7 bb3c 2a0d e5bd
00000050: 308b 043e 200c 423d 4208 eb3c 0eeb 083e
00000060: f59f 993d eca7 9b3c da01 18be 52fc 6d3d
00000070: 46e9 8f3d 7a3b 763d 0f2d d8bd 86d6 583d
00000080: 2e83 6a3d a49a bbbc 711f 3f3d 925a b9bc
00000090: 2f96 0cbe c378 adbd ea1c 2a3d 8962 8f3d
000000a0: a6a1 213c f6c8 55bd 36b2 ce3b 29d5 c03b
000000b0: 84fc 63bc f819 b53d 7b1f 10be 03d3 f33c
000000c0: 94ad 713d 27d3 7f3c 6719 55bc 4e09 dcbd
000000d0: bc94 313d 5963 a13d 3116 acbc 1e61 303d
000000e0: a645 8a3d 65ad 2f3c 7417 963d 00b8 c7bc
000000f0: 6c58 a53d 85e0 a5bc ff9b 13bd 8c0e 613c
00000100: 7623 05bc eddc 6a3d 0688 3b3d c2c3 8c3d
00000110: 8153 133d fcf4 4f3d ad66 fbbb 5927 d8bd
00000120: ed82 50bc 9b80 d23b 74d6 d63a b8ee 953c
00000130: be9c 723d d37c 333e 0086 a43d e0e0 623d
00000140: 48da d93c 2e78 173d 6b32 873d 33a9 ddbc
00000150: 5e64 253c 8595 4b3d f07f 7d3b 95e5 b93d
00000160: 5446 623d 4676 d23d 165a 8b3d da04 623d
00000170: abea cb3c 6d46 a7bb 0d7e 283d 684e 40bd
00000180: 8955 a13d d7cb a03d 9be7 3d3a b8c9 e03c
00000190: 1aac 653d 4338 863d 4cfc 303d 773d 843d
000001a0: 7173 133e 1774 bc3d 4870 0d3b 1c40 b0bc
000001b0: 816b 293d dc79 dbbe 5da2 0fbd 2c4f 343e
000001c0: a8c2 b43c ac0e e63c f1d2 f23d e80b 5e3c
000001d0: 3b25 4fbc 145e 1cbe ad81 e63c d4f2 f13b
000001e0: 3e63 d63d 1794 9dbc 1481 1c3d 8269 c23c
000001f0: b1eb 4cbc 7239 173e f0d6 f13b c512 2dbd
00000200: 5cf7 713d 1453 f83b a136 943e 6507 703d
00000210: 9e6c a9bc 0340 f03b 61d6 ef3d 99a8 48be
00000220: a661 073e e4df 0f3e 40c0 883d 74aa 9c3d
00000230: 6ef0 113d e9ed 233d 13df 3f3d 6ab0 043d
00000240: 95f3 cb3b 2ade d83c 0191 fc3d 2b1e b93d
00000250: 38dc 4c3e 5c3a 853d 6e6b a73d 8c8b 9d3c
00000260: 0ddc 373d 6809 693d 82c5 cd3d 80ce 343e
00000270: 12ac 38bd d07e cdbd c703 913c 3d0c 9e3e
00000280: 2af4 a53c 3864 103d c094 273d 3b5b a03d
00000290: 5888 453d 77c8 253d a2f4 653d e57f c5bc
000002a0: 69c6 0fbe feac 33bc bd68 e53c 0952 003d
000002b0: 32d3 333d b8b5 ad3c 0524 86bd 7098 063d
000002c0: 1104 2ebe 435e 10be 0dfa 20be 58c1 edbd
000002d0: 8946 3cbd 581a e6bc c439 2b3d 7fc6 8dbe
000002e0: 7582 c63d 556b c63b ea8e 22bc 1ba9 86be
000002f0: fd67 a9bd a4da dc3d da3a b53b 9e7e f5be
00000300: 819d 1d3d 6088 c43c e65c edbd 8bae c3bd
00000310: f114 6b3a 532f 18bd 56ea 13be b0c3 d1bd
00000320: a811 2b3d 17b5 b6be b079 973e 9264 20be
00000330: c66f 68bc d843 cfbb 9624 c73a 10fd bcbc
00000340: 0691 953c 053d 8dbd 1135 05be 8e92 55be
00000350: 6b50 cbbe 8dbd 843c 32e4 33be 8daa fcbd
00000360: b7ae 703c 39d3 2cbe 5b7e 97be c1f9 22be
00000370: a6d5 b4bd 6a80 dcbe 1868 ae3c c110 8abe
00000380: 2ebd 9abd ecd7 1fbe a473 ccbb 0493 82be
00000390: c8f0 81be e3dc 5d3c ed2f 0bbc 6042 c33e
000003a0: 9f4c bfbe 11f1 dc3c b42c c9be 6196 cfbe
000003b0: b0db 1b3d 8074 9fbe 38cc 2e3c e881 193d
000003c0: 9adc cfbd da40 353b 1b98 8abd a957 123c
000003d0: 7ab4 0cbe 41ea 9a3b 6512 453e ec9c a33c
000003e0: 4d14 6cbe 1918 163b 1aef f23c 3de4 0abc
000003f0: 811a 0e3d aed8 ebbe f15d cdbd c406 4bbe

bias f4 [2]
-0.01855808 -0.12301869
00000000: 1d07 98bc 39f1 fbbd
