best_baseline_model.pt (torch, 478711 bytes, 6 tensors)

weight f4 [447, 40]
-0.25264534 -0.05930231 -0.16746368 -0.048383575 -0.12691325 -0.2552286 0.008871218 0.1099722
0.065071315 -0.10948803 0.23747057 -0.033251632 -0.0948248 -0.021599613 0.0060150954 -0.0065243887
-0.1339453 -0.034495793 -0.2009902 -0.15161203 0.03521883 -0.16098432 -0.19907063 -0.19899713
-0.23976257 -0.13349406 -0.01814001 -0.038957994 0.0054751737 0.0026357644 -0.13010783 -0.22830182
-0.22955528 -0.30297738 -0.1689325 -0.12564206 -0.12872909 -0.39791444 0.061029386 -0.26392418
-0.114369765 0.05721829 0.060560565 -0.107612796 0.08765147 0.018352158 -0.076929614 -0.3460732
0.008234261 0.032326255 0.0323461 -0.061326057 -0.20027222 0.05461023 -0.025240941 -0.16142789
-0.059535064 0.07143815 -0.12657908 0.03570245 0.06066699 0.068594515 0.1537078 -0.06296106
0.0108444365 0.051937714 -0.048375852 -0.25613558 0.0009954596 0.031475965 -0.13406828 -0.18550663
-0.05552789 -0.14740369 0.08381051 -0.09027035 0.014149983 -0.08856753 0.044146527 -0.14571595
-0.078696035 -0.100676395 -0.024659025 -0.29558876 -0.31719303 -0.3275953 -0.078652665 -0.029495241
-0.040927593 -0.14778195 -0.18660598 -0.21719345 -0.28051892 -0.28946617 -0.0075539756 0.083874874
0.057887934 -0.13936327 -0.19264627 -0.26680076 -0.04865332 -0.33744872 -0.34258178 -0.105845176
-0.17390645 -0.22440878 -0.028476635 -0.18462056 -0.13083579 -0.016122684 -0.11063916 -0.1608959
-0.180768 -0.077691734 0.28617877 0.30505282 0.53780633 0.16393608 -0.038432498 -0.14457336
-0.016760526 -0.047137104 -0.062397797 -0.23503125 -0.007844933 -0.23374048 0.013104781 -0.28808045
-0.27687225 -0.23217064 0.08577767 -0.23752622 -0.24068679 -0.16422626 -0.09287888 -0.25757316
0.10051337 -0.11876791 -0.10726795 -0.28050426 0.24281304 -0.0014803915 0.22977096 -0.109347515
0.10420669 -0.09922213 0.11253965 0.37529197 -0.25877276 -0.15391132 -0.07527306 0.20907167
0.2308895 -0.010521364 -0.25613466 -0.13608426 -0.30265123 -0.022205742 -0.03830608 -0.14881386
-0.19350222 0.0259532 0.08689387 0.011232176 -0.15328884 0.03498507 0.029244402 -0.22202574
0.12001943 0.12635183 0.13170598 0.11966695 -0.02574855 -0.0081472825 -0.2644611 -0.13117437
0.00038809655 -0.08957802 0.090418026 -0.07210089 0.10951267 0.07729137 0.044362277 -0.04311048
0.019435672 -0.13261549 -0.04159522 0.01582406 0.00083878904 -0.18287799 -0.06222203 -0.14991102
0.042068977 -0.086031705 0.099235386 -0.07526328 -0.15006866 -0.0819615 0.045756925 -0.1854303
-0.1789719 -0.036689293 0.008956264 -0.09563429 -0.06518589 0.12289214 -0.0045079654 -0.29147547
-0.006011667 -0.024584264 0.07964444 0.09584911 -0.019917333 0.107835606 -0.09012399 -0.0785851
0.048335493 -0.077099666 -0.2358538 0.045650892 0.27189937 0.09629016 0.06137656 0.032305807
0.17879866 -0.19143878 -0.017650947 0.58731467 -0.09153496 -0.057211485 -0.036101777 -0.15371573
0.09354228 -0.20926565 -0.07166066 -0.15516222 -0.09998221 -0.27125412 -0.030572372 -0.05402197
0.06935748 0.0483346 0.08271314 0.0272479 0.11571808 -0.031997886 -0.08655152 0.101770945
-0.024804316 -0.22650021 -0.23058663 -0.11781432 -0.099136665 -0.1580929 -0.006434566 -0.17078498
00000000: bb5a 81be fbe6 72bd 997b 2bbe db2d 46bd
00000010: 8cf5 01be 53ad 82be 9658 113c 1b39 e13d
00000020: 1c44 853d 433b e0bd 7c2b 733e dd32 08bd
00000030: 8133 c2bd acf1 b0bc 471a c53b 8aca d5bb
00000040: f528 09be 764b 0dbd 60d0 4dbe 2f40 1bbe
00000050: 9f41 103d 13d9 24be 2cd9 4bbe e7c5 4bbe
00000060: 5284 75be abb2 08be 5c9a 94bc 6b92 1fbd
00000070: 1669 b33b cabc 2c3b fd3a 05be f4c7 69be
00000080: 8a10 6bbe da1f 9bbe a4fc 2cbe 50a8 00be
00000090: 8fd1 03be 71bb cbbe f3f9 793d 1221 87be
000000a0: b23a eabd ba5d 6a3d 5b0e 783d 1964 dcbd
000000b0: 9d82 b33d 4457 963c 468d 9dbd 8230 b1be
000000c0: fee8 063c 8968 043d 587d 043d 0831 7bbd
000000d0: 2914 4dbe faae 5f3d 17c6 cebc 5a4d 25be
000000e0: 0adb 73bd 2a4e 923d f29d 01be bb3c 123d
000000f0: f37d 783d 487b 8c3d 9465 1d3e baf1 80bd
00000100: ddac 313c a4bc 543d c225 46bd 3424 83be
00000110: 157a 823a f1ec 003d 3249 09be 73f5 3dbe
00000120: 3671 63bd fef0 16be d8a4 ab3d a9df b8bd
00000130: 55d5 673c e562 b5bd fdd2 343d 9036 15be
00000140: 632b a1bd 6d2f cebd b901 cabc 6957 97be
00000150: 2067 a2be 92ba a7be a614 a1bd 01a0 f1bc
00000160: b1a3 27bd 2754 17be a315 3fbe f667 5ebe
00000170: 2da0 8fbe e934 94be 5787 f7bb 97c6 ab3d
00000180: e61b 6d3d 3fb5 0ebe 1045 45be 1c9a 88be
00000190: b448 47bd 14c6 acbe e166 afbe 5bc5 d8bd
000001a0: 8814 32be 6acb 65be d547 e9bc 2c0d 3dbe
000001b0: d1f9 05be b813 84bc c996 e2bd e5c1 24be
000001c0: 3f1b 39be d81c 9fbd 0686 923e e22f 9c3e
000001d0: adad 093f dcde 273e 656b 1dbd 0a0b 14be
000001e0: 5f4d 89bc d612 41bd d594 7fbd 08ac 70be
000001f0: 0988 00bc aa59 6fbe 6fb5 563c 487f 93be
00000200: 33c2 8dbe 24be 6dbe 34ac af3d 133a 73be
00000210: 9976 76be ee2a 28be 4837 bebd a1e0 83be
00000220: f4d9 cd3d 973c f3bd 4daf dbbd 419e 8fbe
00000230: fba3 783e b209 c2ba 1449 6b3e 97f1 dfbd
00000240: 516a d53d f934 cbbd 307b e63d 4526 c03e
00000250: dd7d 84be ee9a 1dbe c328 9abd e216 563e
00000260: 4c6e 6c3e cd61 2cbc 1524 83be ac59 0bbe
00000270: 1af5 9abe d1e8 b5bc d6e6 1cbd a962 18be
00000280: 7225 46be ce9b d43c 6af5 b13d 2907 383c
00000290: c0f7 1cbe 814c 0f3d f591 ef3c b75a 63be
000002a0: bfcc f53d 6062 013e efdd 063e f213 f53d
000002b0: a0ee d2bc 2e7c 05bc 7267 87be 9352 06be
000002c0: 7079 cb39 ae74 b7bd 162d b93d a2a9 93bd
000002d0: 2e48 e03d f04a 9e3d 38b5 353d 9d94 30bd
000002e0: 8f37 9f3c 5bcc 07be c05f 2abd 76a1 813c
000002f0: 2ee2 5b3a 5e44 3bbe 87dc 7ebd 4682 19be
00000300: 8550 2c3d 6431 b0bd ec3b cb3d a223 9abd
00000310: 99ab 19be 6edb a7bd 9d6b 3b3d 71e1 3dbe
00000320: 6944 37be 8347 16bd 4bbd 123c e9db c3bd
00000330: 2e80 85bd e0ae fb3d 8eb7 93bb 463c 95be
00000340: 85fd c4bb f064 c9bc a01c a33d 8a4c c43d
00000350: ad29 a3bc ead8 dc3d ed92 b8bd 3af1 a0bd
00000360: 70fb 453d 6ee6 9dbd a983 71be 6efc 3a3d
00000370: 6536 8b3e c733 c53d fd65 7b3d 1853 043d
00000380: ff16 373e 8708 44be b898 90bc 415a 163f
00000390: ae76 bbbd 9756 6abd 75df 13bd a867 1dbe
000003a0: 1893 bf3d bc49 56be d3c2 92bd d8e2 1ebe
000003b0: 79c3 ccbd d2e1 8abe e972 fabc 2446 5dbd
000003c0: 4b0b 8e3d 80fa 453d 8265 a93d fd36 df3c
000003d0: 9afd ec3d 3710 03bd ec41 b1bd 496d d03d
000003e0: 6c32 cbbc acef 67be e71e 6cbe a248 f1bd
000003f0: 2a08 cbbd 1be3 21be 0dd9 d2bb 42e2 2ebe

bias f4 [447]
-0.2363684 0.043504007 0.115682475 0.034329414 -0.07994002 -0.18556398 -0.16276096 -0.15869766
-0.005904637 0.10205788 0.13604228 0.21115175 -0.23557962 0.012637082 -0.16081472 -0.28313154
0.46180877 -0.25483856 -0.08167826 0.09704443 0.060168494 -0.45256606 -0.08611693 -0.038000643
0.47644785 -0.10260868 -0.18379878 0.13198575 0.1945604 -0.21150728 0.15417174 -0.031583667
0.121221766 0.06672864 -0.07329262 -0.049360428 -0.070376165 0.07169905 -0.3248023 -0.018896984
-0.20224875 -0.20523293 0.063573584 -0.1499679 0.012503897 -0.032294784 0.4363833 -0.011721556
0.048398238 -0.055111933 0.13788565 0.11233652 -0.07682247 -0.027886875 -0.2597571 -0.20761234
0.14728776 0.034788333 -0.089524955 -0.012992767 -0.14767905 -0.08187573 0.18471406 0.087668404
-0.16900168 0.024152402 -0.13329814 -0.01709423 0.07494464 0.009090687 0.03801196 -0.20549536
-0.071098514 0.030916456 -0.14440994 0.112364516 0.11295538 -0.17407858 -0.037488714 -0.20311293
-0.17374983 0.10878823 -0.17948316 -0.026472416 0.38851735 -1.0506784 -0.082599185 -0.009186632
-0.18839161 -0.0765485 0.22362132 -0.06825923 0.074971415 -0.031985696 0.017128775 0.09578501
-0.51235104 -0.1617212 0.0917976 -0.18767372 0.20808718 0.3933429 -0.041056637 -0.14341812
-0.08395589 -0.09735525 0.063152544 -0.066105254 -0.24799576 -0.0047275256 -0.14782615 0.057878662
-0.0484993 -0.12941195 -0.07037343 0.09805228 0.006887466 -0.47292078 -0.039035875 -0.10472429
-0.04748308 0.036931314 -0.03760338 0.0055715414 -0.050246958 -0.0955867 -0.24573219 0.19193278
-0.0034320718 -0.010871148 -0.090664655 -0.16592477 0.08956535 0.16171126 -0.11022517 0.1002877
0.044588402 0.11859461 -0.09271241 -0.02951525 -0.23509957 0.09539436 0.041594665 0.03849961
0.10749525 -0.09841874 -0.19092655 0.17119932 -0.34126893 0.103129216 -0.19372916 -0.22654125
0.12811972 -0.05583344 0.11489598 -0.066929646 -0.006703105 -0.2289695 -0.15265967 0.020165332
-0.21134296 -0.061512314 -0.07843353 -0.0590225 0.088511124 -0.14575645 -0.024478296 -0.066942334
-0.11228936 -0.012456368 -0.1504567 0.33412573 0.06470348 0.14533456 0.028601078 -0.058853146
-0.18392876 -0.04409592 -0.07364149 -0.101939864 0.3286004 -0.10281498 -0.054865677 -0.24792972
-0.07699911 0.028045943 -0.026236614 -0.22286548 0.16213481 -0.086806856 0.033161648 -0.08724445
-0.0583704 -0.02968222 -0.0021757716 -0.054553144 0.017937338 -0.29066315 0.33706966 -0.24987675
-0.14687052 0.050749455 0.26532 -0.04928062 -0.19364825 -0.14044167 0.21114306 -0.17559524
-0.19633308 -0.017795224 -0.07972105 -0.22048989 -0.82182664 -0.14721347 0.4294947 -0.09688709
0.10178947 -0.17985682 -0.13821433 0.40950933 -0.11982945 0.0136521915 -0.20117283 -0.08813878
-0.09051012 0.035975553 0.18814863 0.07546969 -0.11581926 -0.15817575 -0.027157562 0.1756464
-0.2687537 -0.054655932 -0.018544933 -0.106153585 -0.07520588 -0.30898777 0.0020103704 -0.12020844
-0.11814562 -0.05251425 0.016489763 -0.00436972 -0.20031844 0.081487216 0.1706515 -0.023229254
-0.11100317 0.4327178 -0.029058622 0.0069714445 -0.17750885 0.19659542 -0.6888619 -0.050899692
00000000: 8f0a 72be 4231 323d efea ec3d 009d 0c3d
00000010: 98b7 a3bd 7c04 3ebe cfaa 26be a481 22be
00000020: af7b c1bb b903 d13d ab4e 0b3e 2a38 583e
00000030: c93b 71be c30b 4f3c 9dac 24be 9ef6 90be
00000040: 3372 ec3e 337a 82be ee46 a7bd 3bbf c63d
00000050: 3d73 763d bdb6 e7be 135e b0bd 90a6 1bbd
00000060: f9f0 f33e 8024 d2bd bf35 3cbe 4627 073e
00000070: d73a 473e 5d95 58be 32df 1d3e e05d 01bd
00000080: 1e43 f83d 06a9 883d 711a 96bd 292e 4abd
00000090: 6121 90bd f4d6 923d 7d4c a6be d9cd 9abc
000000a0: 4c1a 4fbe 9528 52be de32 823d 2f91 19be
000000b0: 25dd 4c3c 8947 04bd a26d df3e c50b 40bc
000000c0: 3b3d 463d 0dbd 61bd e531 0d3e b010 e63d
000000d0: 1955 9dbd 0473 e4bc e2fe 84be 5498 54be
000000e0: 9ad2 163e 367e 0e3d dc58 b7bd 9ddf 54bc
000000f0: 2d39 17be 76ae a7bd af25 3d3e 7e8b b33d
00000100: c70e 2dbe 42db c53c 4f7f 08be 3309 8cbc
00000110: 937c 993d 1bf1 143c 6eb2 1b3d 606d 52be
00000120: 199c 91bd 8244 fd3c 33e0 13be 5e1f e63d
00000130: 2655 e73d a841 32be c48d 19bd d6fc 4fbe
00000140: 7aeb 31be 5dcc de3d 6fca 37be aedc d8bc
00000150: bfeb c63e a17c 86bf c329 a9bd 8783 16bc
00000160: bbe9 40be 76c5 9cbd fdfc 643e 7fcb 8bbd
00000170: 9d8a 993d 6f03 03bd a551 8c3c ee2a c43d
00000180: 7029 03bf 3e9a 25be 6100 bc3d 8a2d 40be
00000190: ce14 553e 3e64 c93e 012b 28bd 33dc 12be
000001a0: 11f1 abbd 3062 c7bd 1f56 813d 3162 87bd
000001b0: 9af2 7dbe 5ce9 9abb bd5f 17be 2d12 6d3d
000001c0: 34a7 46bd 9184 04be f21f 90bd a2cf c83d
000001d0: 41b0 e13b ac22 f2be 15e4 1fbd b079 d6bd
000001e0: 9e7d 42bd 4a45 173d 0006 1abd 7a91 b63b
000001f0: c1cf 4dbd f6c2 c3bd 38a1 7bbe 078a 443e
00000200: 9cec 60bb e61c 32bc 64ae b9bd 2fe8 29be
00000210: 0a6e b73d a397 253e bcbd e1bd a363 cd3d
00000220: 54a2 363d bbe1 f23d 01e0 bdbd f7c9 f1bc
00000230: f1bd 70be 1e5e c33d 2b5f 2a3d c4b1 1d3d
00000240: 7826 dc3d c48f c9bd 4082 43be e04e 2f3e
00000250: cdba aebe 6935 d33d f060 46be 6efa 67be
00000260: d131 033e 9bb1 64bd 954e eb3d 6912 89bd
00000270: b8a5 dbbb fb76 6abe d152 1cbe c431 a53c
00000280: 4a6a 58be 56f4 7bbd c2a1 a0bd 94c1 71bd
00000290: 5245 b53d 2e41 15be b586 c8bc 1019 89bd
000002a0: f7f7 e5bd cb15 4cbc 5211 1abe 8712 ab3e
000002b0: 4283 843d 95d2 143e cf4c ea3c ff0f 71bd
000002c0: d257 3cbe ec9d 34bd 59d1 96bd d9c5 d0bd
000002d0: 503e a83e a990 d2bd d5ba 60bd 4ae1 7dbe
000002e0: b6b1 9dbd 9bc0 e53c 2bee d6bc d936 64be
000002f0: ab06 263e cbc7 b1bd 82d4 073d 38ad b2bd
00000300: cd15 6fbd 2128 f3bc 6497 0ebb 1e73 5fbd
00000310: 53f1 923c cdd1 94be 6594 ac3e b1df 7fbe
00000320: 3a65 16be a9de 4f3d 06d8 873e 7ada 49bd
00000330: ba4b 46be f1cf 0fbe e335 583e 3dcf 33be
00000340: 8a0b 49be 4ac7 91bc ca44 a3bd 1ac8 61be
00000350: 3b63 52bf 21bf 16be bbe6 db3e bd6c c6bd
00000360: ff76 d03d 632c 38be 0f88 0dbe 35ab d13e
00000370: 2569 f5bd 71ad 5f3c 4000 4ebe 1b82 b4bd
00000380: 5f5d b9bd 1a5b 133d 09aa 403e da8f 9a3d
00000390: a632 edbd d3f8 21be 8979 debc a6dc 333e
000003a0: 169a 89be e6de 5fbd 8beb 97bc 0d67 d9bd
000003b0: 8a05 9abd a533 9ebe 6bc0 033b d82f f6bd
000003c0: 55f6 f1bd 2f19 57bd 8a15 873c de2f 8fbb
000003d0: 4720 4dbe c5e2 a63d 44bf 2e3e 474b bebc
000003e0: a155 e3bd 308d dd3e 590c eebc b770 e43b
000003f0: e1c4 35be 4f50 493e 4159 30bf 327c 50bd

weight f4 [223, 447]
-0.06631136 -0.080184095 -0.033724938 0.008469407 -0.01688162 0.15264413 0.039391514 -0.09013441
-0.13561167 -0.089215636 -0.031138001 0.10944722 -0.04155746 0.09253118 -0.09317598 -0.3459033
-0.1050997 -0.06574365 0.04839132 -0.15785462 0.048003282 -0.14892113 -0.014508488 -0.065234184
0.040176097 -0.014520364 -0.012172972 -0.13437015 0.06674248 -0.048896156 -0.050281886 0.017270938
0.13104957 0.013191844 0.10162825 -0.024390513 -0.077511616 -0.0958579 -0.2704085 -0.00496557
0.05864409 0.053299297 -0.04537119 -0.037159182 0.07898318 -0.013794529 0.24111983 0.1382801
-0.027301272 0.14077562 0.08160652 0.12088521 -0.025098598 -0.024497986 -0.036096934 0.19461444
0.23779638 0.0004521537 -0.029828291 0.093591385 -0.0065608663 -0.09784329 -0.08680652 -0.09588318
-0.010326654 0.1283478 -0.033833764 -0.008159935 -0.05036054 -0.0694231 0.11590337 -0.022665834
-0.046018958 -0.098445244 -0.08056403 0.07715138 -0.037634138 -0.04928572 -0.15313476 -0.067175455
-0.073236175 0.1161102 -0.04882491 -0.1669762 0.005000472 -0.54652035 0.072195575 0.15132104
-0.07400867 -0.09252876 -0.0955338 -0.007568494 0.14417793 -0.06796189 0.081858635 -0.05483798
-0.16022784 -0.05240391 0.04978019 -0.042895317 0.10706446 0.04832452 -0.097509705 -0.06957202
0.045058463 -0.36615372 -0.06669272 -0.10283283 -0.011307057 -0.04421856 -0.10471208 0.113132045
-0.072482176 0.019270461 -0.05010521 0.031037351 -0.020786786 -0.23373018 -0.033070374 0.01084913
-0.08518256 0.04005 -0.035032053 -0.14249739 0.043731783 -0.14436582 -0.07085946 0.1274006
-0.021523004 -0.0008399 -0.1799715 -0.07331436 -0.06372184 -0.019288722 0.0015184517 -0.0010684871
0.08053841 -0.0649777 -0.02767058 -0.046415713 -0.019078465 0.047991507 -0.05715159 -0.07767009
-0.005961862 -0.14231536 -0.058001492 0.04067926 -0.07515031 -0.07364252 -0.030252526 -0.041397516
0.025567979 -0.10086503 0.015697062 0.013084274 0.050434913 -0.02303039 -0.06497252 0.064863026
0.13957146 -0.022997698 0.13224052 -0.036889464 0.10914767 -0.06257746 0.071574345 -0.07333314
0.033346813 -0.049216267 0.025009476 -0.39737996 -0.041780993 0.020486005 -0.03921306 -0.010303585
-0.021593576 -0.056439467 0.080200724 0.062218335 -0.016682092 0.048441216 -0.039828032 -0.056879412
-0.026769247 -0.05094368 -0.09462593 -0.039751153 0.11473765 -0.035975162 -0.025280146 -0.08273047
-0.04112948 -0.041867886 0.009657356 -0.06927765 0.12005952 -0.029278835 -0.037672117 -0.33914846
-0.074246444 -0.062523514 -0.018366208 -0.041572332 -0.095771894 -0.017491046 -0.028985126 -0.2710284
-0.048310082 0.16912279 -0.05307108 0.10417895 -0.8322548 -0.05281907 -0.09482046 -0.08379495
0.105876684 -0.012015176 -0.09316812 -0.53298825 -0.025316177 -0.012209273 -0.030123997 -0.04406783
-0.122110896 0.06904828 0.093178004 -0.03381592 -0.061162155 0.016765239 -0.054994877 -0.006841623
-0.026383165 -0.03191532 -0.025313063 -0.06837247 -0.040567204 0.04044611 -0.04269085 0.07586343
-0.055406395 -0.00443032 -0.03498116 -0.031954136 -0.05637371 -0.0906121 0.10297532 -0.055952463
-0.15785573 -0.02979874 0.07486146 0.04103665 -0.085354865 0.015677122 -0.10617354 0.06374238
00000000: 40ce 87bd 8f37 a4bd 2923 0abd 45c3 0a3c
00000010: 534b 8abc be4e 1c3e ff58 213d 6498 b8bd
00000020: c9dd 0abe b0b6 b6bd 1f15 ffbc dd25 e03d
00000030: 2838 2abd fd80 bd3d 0cd3 bebd 3d1a b1be
00000040: 833e d7bd 9ba4 86bd fa35 463d a4a4 21be
00000050: 179f 443d c87e 18be 02b5 6dbc 8099 85bd
00000060: b18f 243d d2e6 6dbc 2571 47bc 5498 09be
00000070: 48b0 883d 5647 48bd 61f4 4dbd c87b 8d3c
00000080: dc31 063e 9b22 583c 7922 d03d 9dce c7bc
00000090: 69be 9ebd 2651 c4bd fc72 8abe 38b6 a2bb
000000a0: c934 703d 5d50 5a3d 24d7 39bd 3a34 18bd
000000b0: efc1 a13d 7302 62bc 1ee8 763e 4c99 0d3e
000000c0: eba6 dfbc 7c27 103e 5221 a73d aa92 f73d
000000d0: 939b cdbc 00b0 c8bc 61da 13bd 0249 473e
000000e0: e580 733e 0b0f ed39 765a f4bc d7ac bf3d
000000f0: 89fc d6bb 1062 c8bd 9ec7 b1bd 675e c4bd
00000100: 2031 29bc 9b6d 033e 4695 0abd 3fb1 05bc
00000110: db46 4ebd b32d 8ebd bf5e ed3d b3ad b9bc
00000120: 607e 3cbd a99d c9bd c1fe a4bd 8b01 9e3d
00000130: 4126 1abd d3df 49bd 5ccf 1cbe 4993 89bd
00000140: d9fc 95bd 2fcb ed3d a1fc 47bd cffb 2abe
00000150: 00db a33b c2e8 0bbf 46db 933d e7f3 1a3e
00000160: dc91 97bd b87f bdbd 3aa7 c3bd 2101 f8bb
00000170: 61a3 133e 9a2f 8bbd 80a5 a73d ca9d 60bd
00000180: c412 24be 7ba5 56bd 50e6 4b3d 00b3 2fbd
00000190: 9d44 db3d efef 453d 2bb3 c7bd c67b 8ebd
000001a0: 398f 383d 8078 bbbe 3196 88bd 059a d2bd
000001b0: 3c41 39bc 851e 35bd 4973 d6bd c6b1 e73d
000001c0: 8971 94bd 16dd 9d3c 1f3b 4dbd 0b42 fe3c
000001d0: 0d49 aabc f756 6fbe cd74 07bd 8dc0 313c
000001e0: 3274 aebd 780b 243d c57d 0fbd d6ea 11be
000001f0: 1920 333d a2d4 13be c41e 91bd 4e75 023e
00000200: 0351 b0bc bc2c 5cba 734a 38be d725 96bd
00000210: 9980 82bd 6203 9ebc c906 c73a 7a0c 8cba
00000220: 52f1 a43d 0713 85bd 6aad e2bc 671e 3ebd
00000230: 714a 9cbc be92 443d c917 6abd 7f11 9fbd
00000240: b95b c3bb 1ebb 11be f992 6dbd 4c9f 263d
00000250: 68e8 99bd e4d1 96bd 25d4 f7bc 7190 29bd
00000260: f073 d13c 5392 cebd 2097 803c 6c5f 563c
00000270: d794 4e3d 3aaa bcbc 5010 85bd e8d6 843d
00000280: d2eb 0e3e ab65 bcbc 0f6a 073e 6819 17bd
00000290: d088 df3d 9d28 80bd 9295 923d af2f 96bd
000002a0: ab96 083d ff96 49bd ace0 cc3c 6375 cbbe
000002b0: 8c22 2bbd 44d2 a73c e09d 20bd 5ed0 28bc
000002c0: 03e5 b0bc 122d 67bd 4740 a43d a7d8 7e3d
000002d0: e2a8 88bc 4c6a 463d b822 23bd 63fa 68bd
000002e0: 2e4b dbbc 52aa 50bd 3dcb c1bd 1bd2 22bd
000002f0: 93fb ea3d b15a 13bd 4f18 cfbc 986e a9bd
00000300: 6377 28bd a97d 2bbd e339 1e3c 71e1 8dbd
00000310: c4e1 f53d 2bda efbc 144e 1abd dea4 adbe
00000320: 850e 98bd 540c 80bd bb74 96bc c047 2abd
00000330: 0e24 c4bd 6249 8fbc 3772 edbc 3cc4 8abe
00000340: cbe0 45bd 862e 2d3e 1061 59bd c65b d53d
00000350: a70e 55bf cf58 58bd 3b31 c2bd b09c abbd
00000360: e0d5 d83d 4ddb 44bc edce bebd eb71 08bf
00000370: df63 cfbc 6709 48bc 9ac6 f6bc 7880 34bd
00000380: 4715 fabd 2f69 8d3d 1cd4 be3d 9082 0abd
00000390: 2b85 7abd 4157 893c 4f42 61bd b22f e0bb
000003a0: 8221 d8bc a3b9 02bd 575d cfbc de06 8cbd
000003b0: cc29 26bd d2aa 253d 9adc 2ebd 495e 9b3d
000003c0: d1f1 62bd 382c 91bb 6848 0fbd 57e2 02bd
000003d0: 1fe8 66bd d692 b9bd b9e4 d23d 692e 65bd
000003e0: efa4 21be 7d1c f4bc f750 993d 0c16 283d
000003f0: 88ce aebd 4f6d 803c 8371 d9bd 5d8b 823d

bias f4 [223]
0.090958565 -0.2391742 -0.14291705 0.07574176 -0.11951823 -0.15396653 -0.07656602 0.08646379
-0.15123379 -0.06931878 0.48260337 0.18672349 0.019309595 -0.10978846 -0.14365004 0.10679908
-0.15280895 -0.016075756 -0.014858986 -0.1403997 -0.09021456 0.05849535 -0.26623878 -0.10279294
0.024138192 -0.021865575 0.20543927 0.14175999 -0.13743839 0.19499908 -0.028880304 0.06798359
0.13470736 0.09157824 -0.093808815 -0.06976542 0.008093094 0.33625892 -0.0015572145 -0.038719792
0.13080621 -0.06463662 0.052035913 -0.0015598742 -0.035350353 -0.013837327 -0.18656555 0.07070823
-0.0032220932 0.04200652 -0.10240718 0.0059833135 -0.01800007 -0.038202055 0.009072831 0.2005603
0.0838948 0.074619204 0.09234402 -0.11861089 -0.1740545 0.044461884 -0.025038883 -0.30618373
0.029990302 0.001481383 0.037477575 -0.031719998 -0.03216462 0.012800538 -0.06088896 -0.026693027
-0.06800477 0.04758238 0.0025823948 -0.1457412 0.05185996 0.45729044 0.10923161 -0.011820627
-0.03777818 0.0633656 -0.1286509 0.39842328 0.009821348 0.016576294 -0.08498817 -0.036968984
-0.08792086 0.10178362 -0.010898796 0.030075772 0.033788737 -0.032388583 0.33531654 -0.16579188
-0.07122286 -0.08486169 -0.10556549 0.05034951 0.035296816 0.0068291905 -0.10061681 0.0051481174
-0.012858244 -0.102057494 -0.016727073 0.2093399 -0.10734502 -0.0839059 -0.14377925 0.7974076
-0.05525862 0.040541418 -0.092868134 -0.040772438 -0.04325663 0.19383131 0.007173894 -0.038799666
-0.013825397 0.037844975 -0.10671181 -0.12692769 -0.05786511 0.053726673 0.03451719 0.10410045
0.33919472 -0.004323242 0.034914955 -0.07596025 -0.122478046 -0.09003309 0.2624777 0.38098365
0.021787731 -0.056615464 -0.05542003 0.2145604 -0.26116192 -0.08854308 -0.030641144 0.041751765
0.041951 -0.11417744 -0.36160004 0.1686577 -0.03534228 0.09902311 -0.08050028 -0.041113373
-0.01079034 -0.0063842307 0.07633972 0.06684503 -0.15450104 0.018549109 -0.057358235 0.01625677
-0.022788273 -0.077388085 -0.18233623 -0.025345001 0.2353876 -0.12390679 0.2687759 -0.054155488
0.01998352 -0.041113928 -0.020862335 0.057520647 0.1950812 -0.08500883 -0.025526356 0.05056436
-0.02058904 0.06520453 0.028948478 0.023689294 0.04839872 -0.030423267 -0.036658 0.14733893
0.05247369 0.024818633 0.017492991 0.071872495 -0.08221098 -0.022834962 0.046886664 0.088979326
0.13748725 0.07831918 0.011930838 -0.12905921 0.0224459 0.22800446 -0.07974521 0.20137687
-0.15010901 0.046805866 -0.017437462 0.06867368 0.16552219 -0.032804906 -0.009211813 0.08671337
-0.15153676 0.18146005 0.05738538 0.21651772 -0.026558373 -0.116601944 0.4139531 -0.097465575
-0.031085318 -0.019396111 -0.019113105 -0.019480962 0.03743126 -0.07816313 -0.0032295631
00000000: 7c48 ba3d 15ea 74be d958 12be 7f1e 9b3d
00000010: f9c5 f4bd 67a9 1dbe a5ce 9cbd ed13 b13d
00000020: 08dd 1abe 01f7 8dbd ca17 f73e 7134 3f3e
00000030: 282f 9e3c c6d8 e0bd ff18 13be 7ab9 da3d
00000040: f379 1cbe 4eb1 83bc 1b73 73bc f0c4 0fbe
00000050: 69c2 b8bd d298 6f3d 7350 88be 1b85 d2bd
00000060: 75bd c53c 6f1f b3bc ac5e 523e 8829 113e
00000070: a6bc 0cbe d7ad 473e 6396 ecbc fb3a 8b3d
00000080: baf0 093e 5f8d bb3d d61e c0bd 2ce1 8ebd
00000090: e698 043c 212a ac3e 731b ccba a598 1ebd
000000a0: 10f2 053e 3460 84bd 9c23 553d b174 ccba
000000b0: 88cb 10bd f5b5 62bc 0a0b 3fbe 7acf 903d
000000c0: c129 53bb 070f 2c3d dbba d1bd ac0f c43b
000000d0: e274 93bc c279 1cbd 36a6 143c ae5f 4d3e
000000e0: 09d1 ab3d f4d1 983d dd1e bd3d 44ea f2bd
000000f0: 583b 32be aa1d 363d 581e cdbc 1dc4 9cbe
00000100: 39ae f53c f72a c23a 1682 193d d4ec 01bd
00000110: 0cbf 03bd 59b9 513c b466 79bd 56ab dabc
00000120: 1646 8bbd bee5 423d 653d 293b 2e3d 15be
00000130: 1c6b 543d f921 ea3e d3b4 df3d 4eab 41bc
00000140: 4bbd 1abd d3c5 813d 10bd 03be 23fe cb3e
00000150: b8e9 203c 02cb 873c 470e aebd ca6c 17bd
00000160: da0f b4bd ee73 d03d dd90 32bc 7761 f63c
00000170: 0f66 0a3d e4a9 04bd 9cae ab3e 59c5 29be
00000180: 4add 91bd f7cb adbd b832 d8bd 4a3b 4e3d
00000190: 6593 103d 67c7 df3b 3010 cebd 8ab1 a83b
000001a0: 62ab 52bc 8503 d1bd 3707 89bc 335d 563e
000001b0: b5d7 dbbd dbd6 abbd de3a 13be e822 4c3f
000001c0: dd56 62bd c20e 263d a631 bebd 0001 27bd
000001d0: dd2d 31bd b77b 463e fc12 eb3b 66ec 1ebd
000001e0: eb83 62bc 5503 1b3d b98b dabd 55f9 01be
000001f0: f703 6dbd 8010 5c3d e661 0d3d 9e32 d53d
00000200: eeaa ad3e fca9 8dbb fc02 0f3d 0c91 9bbd
00000210: c5d5 fabd 4563 b8bd 7a63 863e 4a10 c33e
00000220: 2f7c b23c 9ee5 67bd 1d00 63bd b9b5 5b3e
00000230: 04b7 85be 1356 b5bd 2303 fbbc e603 2b3d
00000240: d0d4 2b3d ddd5 e9bd a423 b9be 9bb4 2c3e
00000250: 11c3 10bd a1cc ca3d 55dd a4bd 7f66 28bd
00000260: f7c9 30bc cf32 d1bb 0058 9c3d 0ce6 883d
00000270: 8535 1ebe 4df4 973c 78f0 6abd eb2c 853c
00000280: 79ae babc a57d 9ebd 59b6 3abe 52a0 cfbc
00000290: 7209 713e d8c2 fdbd ff9c 893e 25d2 5dbd
000002a0: 7bb4 a33c 1467 28bd 7de7 aabc c59a 6b3d
000002b0: 5ec3 473e 1c19 aebd a61c d1bc 931c 4f3d
000002c0: 59aa a8bc f489 853d 5c25 ed3c 0d10 c23c
000002d0: bc3d 463d 373a f9bc b326 16bd 04e0 163e
000002e0: a7ee 563d 7250 cb3c 764d 8f3c e331 933d
000002f0: 3b5e a8bd 6310 bbbc 3b0c 403d cb3a b63d
00000300: 75c9 0c3e ce65 a03d 9079 433c 1928 04be
00000310: 77e0 b73c 007a 693e 7551 a3bd bd35 4e3e
00000320: 2db6 19be 82b7 3f3d 02d9 8ebc c9a4 8c3d
00000330: a67e 293e 705e 06bd 25ed 16bc c896 b13d
00000340: 742c 1bbe aad0 393e ef0c 6b3d d2b6 5d3e
00000350: f290 d9bc 00cd eebd a9f1 d33e 089c c7bd
00000360: a3a6 febc 98e4 9ebc 1693 9cbc 8a96 9fbc
00000370: 8551 193d fe13 a0bd 14a7 53bb

weight f4 [2, 223]
0.010411694 -0.045148313 0.09518981 0.060705673 0.0059153168 0.059692286 -0.065317936 -0.114686616
0.108253025 -0.01585933 0.029541561 0.0668686 0.050076358 0.08301406 0.042871043 -0.09747526
-0.18302584 -0.02994373 0.028195374 -0.018072568 0.031965785 -0.06564685 -0.120615155 0.06202746
0.059911177 0.013630312 -0.15988344 -0.108571485 0.056145154 -0.14707765 0.15530148 -0.07902325
-0.011055954 -0.06311326 0.0762148 0.09783212 0.0699549 0.018191457 0.06454904 -0.33889648
-0.15055782 -0.12960322 0.055998083 0.055240184 -0.024162225 -0.040941954 -0.19128105 0.04262489
0.05658079 0.039567884 0.029295616 0.038024697 -0.07437869 0.12622437 0.0015688802 0.10141105
0.016173897 -0.110624425 -0.11562478 -0.065668255 -0.022092074 0.06157344 -0.1338465 -0.18786098
-0.095651835 -0.0689101 0.0066011674 0.0081330445 -0.02396716 -0.018337877 0.09646473 -0.13212499
-0.0682032 -0.08496226 0.028582914 0.035067633 -0.08976861 0.07959885 -0.10316609 0.063329935
0.006922586 0.005197086 -0.07454709 -0.010045752 0.03409127 -0.052104805 0.059520077 -0.09602779
-0.21755618 0.042811006 0.090351455 0.010413844 -0.10397049 0.012806388 0.038055457 -0.096650265
0.093325906 0.06988865 0.035954885 -0.06805931 -0.037036482 -0.025523275 0.10036859 0.0397912
0.04461349 0.07893179 0.05720746 -0.12241426 0.0076765274 -0.11203511 0.0027970504 0.23650646
-0.0061182193 -0.20147826 -0.038076073 0.110861965 0.057639953 -0.11853684 0.045141473 -0.081317835
-0.046219483 -0.079795405 0.033809725 0.076028936 0.050929774 -0.06717731 0.024404489 0.047702447
0.08295441 0.029999556 -0.115721546 0.008742822 0.031879928 0.089990474 0.07723929 0.03278826
-0.15095921 0.05325819 0.09571687 -0.09498224 -0.15909784 0.100715905 0.010071998 0.031093495
-0.0054233726 0.0837645 -0.13837022 -0.1388483 0.008635802 -0.12128015 0.2045219 0.04457359
0.048558492 0.04545378 0.019042293 -0.11503407 0.16142473 -0.108988255 0.121376105 0.053400677
0.063099794 -0.12275439 -0.030978853 0.035891507 0.24900654 0.005129159 0.089865945 0.037302945
-0.029599788 -0.056885663 0.006596577 0.07278036 -0.12921573 -0.00043124967 0.07077703 0.06717836
-0.044035934 0.07462675 -0.01877261 -0.030875098 -0.027387451 0.013883344 0.07735531 0.07740444
0.078571744 -0.07933172 0.010066749 0.018260986 0.0013760356 0.07349284 0.002542863 0.026170261
-0.12266422 0.055033308 0.042177975 -0.030265328 0.017303726 0.0361406 0.009392889 -0.027943373
-0.02240648 0.110231675 0.03109708 0.016286524 -0.011104171 0.036743306 0.015454003 0.020680161
-0.11065665 0.020518774 -0.029724987 -0.10960561 -0.0040382585 -0.013660961 0.076993406 -0.10719412
0.031610858 0.059382025 0.05070305 0.0022284314 -0.121572845 0.061425976 0.0373418 -0.086298265
0.047604777 0.0039898623 -0.08011719 0.010084079 0.019684928 -0.0011332275 0.06586553 -0.0061522345
-0.08827874 -0.5912967 -0.057730753 -0.028151244 -0.02346649 0.047034044 -0.15418091 -0.051020276
-0.124944545 -0.1062485 0.036144808 -0.014658221 0.041800536 -0.00432765 0.015632493 -0.09063978
-0.037940335 -0.15485428 -0.10349028 0.0011112458 -0.1402706 -0.06942867 0.034733966 -0.047488935
00000000: cf95 2a3c 70ed 38bd e0f2 c23d 83a6 783d
00000010: 46d5 c13b e67f 743d 69c5 85bd d1e0 eabd
00000020: c3b3 dd3d 6deb 81bc 2501 f23c 68f2 883d
00000030: de1c 4d3d 4703 aa3d 8c99 2f3d 1ca1 c7bd
00000040: 206b 3bbe 8e4c f5bc fcf9 e63c ec0c 94bc
00000050: 8eee 023d db71 86bd 1405 f7bd 8210 7e3d
00000060: 6c65 753d ac51 5f3c 7cb8 23be ba5a debd
00000070: 76f8 653d 869b 16be 5a07 1f3e f1d6 a1bd
00000080: 0824 35bc 8641 81bd 8116 9c3d 355c c83d
00000090: 8444 8f3d 4006 953c 4932 843d d783 adbe
000000a0: d42b 1abe b5b6 04be 3f5e 653d 8843 623d
000000b0: dcef c5bc c0b2 27bd 2edf 43be 7097 2e3d
000000c0: 42c1 673d ef11 223d 5cfd ef3c c9bf 1b3d
000000d0: db53 98bd f640 013e e2a2 cd3a 99b0 cf3d
000000e0: 1f7f 843c 0f8f e2bd afcc ecbd 147d 86bd
000000f0: 70fa b4bc 6e34 7c3d 0f0f 09be a15e 40be
00000100: 1ce5 c3bd bd20 8dbd 9b4e d83b 7640 053c
00000110: c756 c4bc 5139 96bc 4d8f c53d c64b 07be
00000120: 1fae 8bbd b200 aebd b726 ea3c 14a3 0f3d
00000130: 9bd8 b7bd b904 a33d be48 d3bd 20b3 813d
00000140: dcd6 e23b 514c aa3b 25ac 98bd f096 24bc
00000150: 4aa3 0b3d d96b 55bd 53cb 733d 38aa c4bd
00000160: 0cc7 5ebe 985a 2f3d 2f0a b93d d49e 2a3c
00000170: 7bee d4bd e2d1 513c 0ae0 1b3d 93f0 c5bd
00000180: a721 bf3d c821 8f3d 6e45 133d ae62 8bbd
00000190: 91b3 17bd 3016 d1bc 0c8e cd3d 19fc 223d
000001a0: a3bc 363d fea6 a13d 5f52 6a3d 54b4 fabd
000001b0: 618b fb3b aa72 e5bd b84e 373b c02e 723e
000001c0: 587b c8bb 5150 4ebe a8f5 1bbd 990b e33d
000001d0: df17 6c3d 71c3 f2bd 44e6 383d f789 a6bd
000001e0: a450 3dbd c66b a3bd 117c 0a3d 0fb5 9b3d
000001f0: bd9b 503d 4294 89bd eceb c73c a463 433d
00000200: 00e4 a93d a1c1 f53c 6bff ecbd 0e3e 0f3c
00000210: 8794 023d ed4c b83d a22f 9e3d fc4c 063d
00000220: 0d95 1abe 4325 5a3d 3507 c43d 0c86 c2bd
00000230: 8bea 22be 2444 ce3d 0605 253c c9b7 fe3c
00000240: 8cb6 b1bb b98c ab3d ecb0 0dbe 402e 0ebe
00000250: 2e7d 0d3c ba61 f8bd 306e 513e cc92 363d
00000260: 45e5 463d be2d 3a3d 95fe 9b3c fc96 ebbd
00000270: 864c 253e 3c35 dfbd 0994 f83d abba 5a3d
00000280: 773a 813d a766 fbbd 5dc7 fdbc f902 133d
00000290: 92fb 7e3e 8112 a83b a30b b83d f9ca 183d
000002a0: 417b f2bc f100 69bd 1928 d83b df0d 953d
000002b0: 2151 04be 5a19 e2b9 8cf3 903d cf94 893d
000002c0: 065f 34bd e9d5 983d 04c9 99bc c6ed fcbc
000002d0: a65b e0bc f776 633c 766c 9e3d 3886 9e3d
000002e0: 39ea a03d ab78 a2bd 01ef 243c 1098 953c
000002f0: 185c b43a 6a83 963d 29a6 263b 0463 d63c
00000300: 6137 fbbd 9b6a 613d d0c2 2c3d feee f7bc
00000310: 8bc0 8d3c 2a08 143d a2e4 193c 80e9 e4bc
00000320: cb8d b7bc 25c1 e13d 4ebf fe3c 516b 853c
00000330: 45ee 35bc 2680 163d c932 7d3c 7169 a93c
00000340: f49f e2bd fd16 a83c d181 f3bc e878 e0bd
00000350: 5e53 84bb 39d2 5fbc b8ae 9d3d 9788 dbbd
00000360: 637a 013d 913a 733d 00ae 4f3d e00a 123b
00000370: 2ffb f8bd ce99 7b3d b7f3 183d 25bd b0bd
00000380: 3afd 423d 64bd 823b 7b14 a4bd b137 253c
00000390: 4942 a13c ce88 94ba 82e4 863d af98 c9bb
000003a0: 7ccb b4bd 385f 17bf 1577 6cbd 709d e6bc
000003b0: cc3c c0bc c5a6 403d 9ae1 1dbe a3fa 50bd
000003c0: ede2 ffbd d098 d9bd 940c 143d 0929 70bc
000003d0: 0a37 2b3d f6ce 8dbb b70f 803c 59a1 b9bd
000003e0: 5367 1bbd 1f92 1ebe b6f2 d3bd 39a7 913a
000003f0: 19a3 0fbe 9e30 8ebd 3445 0e3d c283 42bd

bias f4 [2]
0.019510973 -0.101111
00000000: 7ad5 9f3c 4913 cfbd
