best_baseline_model.pt (torch, 291191 bytes, 6 tensors)

weight f4 [339, 40]
00000000: 6ec3 d83d a95a 333e 9c20 2d3e 449b 1e3d
00000010: 0ca9 51bc 860c 09bd 8267 10be 9044 10be
00000020: 6e98 b43d 3e50 10bd b19a 0bbf 67d8 403d
00000030: ec04 233e 8491 6cbd 8c6f 31bc ec84 ec3c
00000040: 5f33 1d3c 5d84 e03d e6d6 62bd 8132 e3bd
00000050: 8ed6 a2bd 068c 763d 3011 d1be cf05 703c
00000060: 195d 6f3d 581e 0d3e de7f a43d 6afb a3bd
00000070: 2000 273c 7084 71bc 2a14 babb f2e3 afbd
00000080: e35b 2bbc 2170 3fbc 0e68 863d 0fb7 cabe
00000090: 15ac d33e 8b32 0340 0dae 80bc 2d31 f6be
000000a0: f484 15bc 4c33 c33c 4da5 f03d 8018 c83d
000000b0: 9d80 bcbd 72d0 07be f5db d7bd 7427 fabc
000000c0: 125f 2c3f c7c5 cc3b a3af 21bd f3e8 05be
000000d0: a315 d23c 15c6 013e 2633 b1bd 000e 5a3c
000000e0: 2a50 8bb9 523d 71bd fcb3 5f3d cb63 f4bd
000000f0: e821 cf3e 34a1 6fbd 54b6 6ebe 1189 26bc
00000100: 75d1 2cbc 0baf 3cbe 2f06 873e c9ee 3b3e
00000110: 9ece 45bd cf3a e33d b081 b9bd 42f0 103d
00000120: b1ab d5bd 5e08 0cbe d3b9 0a3e 794a dbbd
00000130: 7b9b a03b b790 a33c 8fd9 373e 9fe1 d53d
00000140: 9406 373e f90b 2c3d a235 f3bd 2e0f 3bbe
00000150: c752 113b aa20 18be d618 003e c04b e6bc
00000160: 602b d0bd e697 673e f9fd 993e dad4 213d
00000170: af54 03be fd03 abbe 2c53 863d b288 e13d
00000180: 2b50 2ebe 60d8 48be 3fb1 3e3d 2bae 833d
00000190: 4e35 47be d55e 5fbd 6b62 5a3e b5c7 13bd
000001a0: 1469 b9bd 0a1f 78be 9017 aabe c3fa 3cbe
000001b0: 2dc6 d2bd 4ebc e13d a34e fa3d 5dc0 96be
000001c0: 1d72 88be 876a 4a3d da9e 22be 7b2c fb3e
000001d0: 3a05 053f 009f 90bf 0fbb 183f 15af 15bd
000001e0: 9b21 dcbc 61a2 f53c 9af9 3d3e a17a febd
000001f0: 8870 15bd af44 803d 67a6 a9bd 4253 e53d
00000200: 39a4 40be d8da 09bc 3398 26bf 512b 973b
00000210: 6d01 2d3d 5c17 f13c cc41 38be 6cc7 b93c
00000220: 5d6c ecbd 177c 153e da23 9cbd 46a8 93be
00000230: 3e82 09be 9a89 b83c aa34 a2be d247 ea3d
00000240: 3471 0f3e 448f a33d 5e5f 5dbe 3d0a 72be
00000250: d76f 553e 77ed 833e 84d7 433d 0005 fe3d
00000260: 066d 153c aa0a 4f3d 7eca d9bc 0d27 3ebe
00000270: a96e da3d 79ed 1d3f de62 da3a 8588 0bbd
00000280: bdfa e4bc 16f5 bfbc fe8f dcbc eb48 74bd
00000290: 0782 ab3d b79b 8abd 5b3c 1c3e e44c 2abe
000002a0: 7e4a f4bb 3ed3 763e b543 85be 5e11 493d
000002b0: 927e 13bc 5071 2b3e ecc7 093c 2734 9bbc
000002c0: bf8d b83d 5b7f 5dbd 547f ec3d 51b4 30be
000002d0: ed10 a73d dc65 44bd 3baa 7a3c ab5d 263e
000002e0: eaac e43d 9d4c 823d ad27 09be 6f55 f5bd
000002f0: 0b11 c9bb d1a3 ac3c 1b09 2b3d 93bd babd
00000300: 5f52 753d 7899 073e 0f50 6fbd 670d 3a3d
00000310: 05f9 1bbe 712b 893d fcc3 58be bb8b 1e3e
00000320: 8d96 3ebd 7fe1 003d 9bce 9f3d 0c93 5f3d
00000330: 9914 aabb ec33 193d 00a2 2bbd 61fe c4bd
00000340: c69a 77bc 4da3 233d 83ee a8bd 4c29 9fbd
00000350: ccea fabc 6c5f c43d 3286 45bd 8671 df3d
00000360: 92f9 6abe 0b5f 57be 455f b5bc 936e 04be
00000370: 38bd 813e 236e 2dbe c744 0abe 4a62 44be
00000380: 5b61 bc3d 9c01 15be 2da7 c9bd 74fa b93e
00000390: af15 a43c 0975 0ebe 94c5 fa3c 1c83 ff3c
000003a0: 1837 aebd 6f10 9f3c 6e3b 7bbd 38db 9c3d
000003b0: b9e9 f5bd d56d 853d 6421 bf3d d785 4abe
000003c0: 0cf9 91bc 678d 3b3e 6a9d bbbd c4c9 0bbe
000003d0: d363 503d ae2d debd dcb4 3abd 147c 4cbe
000003e0: 7660 55be 94c6 70bd d52e b63e fb90 773d
000003f0: e2ae 8abd c54f d2bd 0ffa a63d 5e38 b13d
0.1058415 0.17515053 0.1690697 0.03872229 -0.012796652 -0.03345921 -0.14101985 -0.14088655
0.08818136 -0.035232775 -0.54532915 0.047081377 0.15919846 -0.057755962 -0.0108298175 0.028871976
0.009594767 0.10962746 -0.055380724 -0.11093617 -0.07951079 0.06019213 -0.40833426 0.014649822
0.058438394 0.13781106 0.08032201 -0.08006938 0.010192901 -0.014741048 -0.0056786733 -0.08588399
-0.010458919 -0.011684448 0.065628156 -0.39592788 0.41342226 2.04996 -0.015707994 -0.48084393
-0.009125937 0.023828171 0.117502786 0.09770298 -0.092042185 -0.1326311 -0.1054 -0.03053639
0.67332566 0.006249163 -0.03947414 -0.13077144 0.025645083 0.12673219 -0.08652334 0.013309002
-0.00026571873 -0.05889637 0.054615006 -0.119330965 0.40455556 -0.058503345 -0.2331174 -0.010164515
-0.010547985 -0.18426149 0.26371905 0.18352808 -0.04829275 0.11095201 -0.09057939 0.035385378
-0.10433138 -0.13675067 0.13547449 -0.10707564 0.004901347 0.019966466 0.17954086 0.104434244
0.17873603 0.042003606 -0.11875464 -0.1826751 0.0022174583 -0.1485621 0.12509474 -0.028112292
-0.10164523 0.22616538 0.30076578 0.03950963 -0.12825273 -0.3340148 0.065588325 0.11012401
-0.17022769 -0.1961379 0.046555754 0.06429704 -0.19453928 -0.0545338 0.21326606 -0.036079127
-0.09053245 -0.2423059 -0.33221102 -0.18455033 -0.10291705 0.110222444 0.1222203 -0.29443637
-0.26649562 0.049418 -0.1588091 0.49057373 0.519611 -1.1298523 0.5966043 -0.036543924
-0.026871493 0.029984655 0.18552247 -0.12425733 -0.03648427 0.062631 -0.08283692 0.11197521
-0.18812646 -0.008413993 -0.6507599 0.004613318 0.042237688 0.029430084 -0.1799385 0.0226781
-0.11544106 0.14598118 -0.07624026 -0.2883932 -0.1342859 0.022526551 -0.31680804 0.1143948
0.14008027 0.0798631 -0.21618411 -0.23636718 0.20843445 0.2576711 0.047812954 0.124032974
0.0091202315 0.05054728 -0.026585814 -0.18569584 0.10665638 0.6169048 0.0016661545 -0.034065742
-0.027951593 -0.023432296 -0.02692413 -0.059639852 0.0837441 -0.067679815 0.15257399 -0.16630894
-0.007455169 0.2410402 -0.2602822 0.04908883 -0.009002345 0.16742444 0.0084094815 -0.018945767
0.09011411 -0.054076534 0.115477234 -0.17256285 0.08157525 -0.047948703 0.015299375 0.16246669
0.11165793 0.06362269 -0.13394041 -0.11979186 -0.006136065 0.021074207 0.04175673 -0.0911819
0.05989301 0.13242137 -0.05842596 0.045422938 -0.15231712 0.06697739 -0.21168512 0.1548299
-0.046530295 0.03146505 0.07803079 0.054583594 -0.0051904437 0.037403032 -0.041902542 -0.096188314
-0.015112584 0.039950658 -0.082486175 -0.07771549 -0.030629538 0.09588513 -0.04822368 0.10910325
-0.22946766 -0.2103235 -0.022140155 -0.12932806 0.25339675 -0.16936545 -0.13502799 -0.1917812
0.091982566 -0.14551395 -0.098463394 0.36323893 0.02002987 -0.13911833 0.03061179 0.031190448
-0.08506602 0.019417016 -0.061335973 0.07659 -0.1200747 0.065150894 0.09332541 -0.19777618
-0.01781895 0.1831566 -0.09160884 -0.13651186 0.05087645 -0.108485565 -0.045582637 -0.19969207
-0.20837578 -0.05878313 0.35582605 0.060441 -0.067716375 -0.10269121 0.08153164 0.08653329

bias f4 [339]
00000000: 1a01 113e 0919 423e 7403 5abe e9d0 14bd
00000010: 8ec7 dd3c 2037 45bd 7f34 2f3e 2636 e53d
00000020: 535d 223c 679a 20be a8bc 66bd 01e1 003e
00000030: 7a38 66bd da28 ed3c 7cc6 42bd b31b 0a3d
00000040: cc0a 63bd 070b 023d 973d 99bd 0ab5 e93d
00000050: bdfa bcbd e5c7 5fbd 29d3 e8bc 1208 56be
00000060: b25f 21be 1fb9 863e 6e93 8bbd 4075 4c3d
00000070: 18a1 1a3e e6ca 433e d81b ecbc 254e 5bbd
00000080: 9f0a 163e 35b1 6e3d 6518 093e 143d ee3d
00000090: 6c17 b2be b211 fdbd 1f5d aabd 96a3 743e
000000a0: fca1 943d 27dc 833d b128 ebbd 9297 853d
000000b0: 8cab b53c df8c 503e d7f5 db3d 717a 0c3e
000000c0: fdfe 903d 7e57 583e 50c7 0d3e cc59 1ebd
000000d0: cb63 153e be5d 053e cbc0 cfbd 2682 963d
000000e0: 7af2 213e d83c 683d 8e4e 4f3e c77e e4bd
000000f0: 0445 cd3d bd05 23be 4195 72be 5e14 85bc
00000100: 247c e9bc b238 82bd 5023 4bbe 10b0 323d
00000110: 4088 c83d 9527 87bd 22d1 023e 22b8 8ebb
00000120: 8d83 a9bd e577 49be 8704 c5bd 0285 4cbe
00000130: 3d44 f23d 43bd 183d 82b0 c1bd 85ed 55bd
00000140: c97a 363c a179 6a3d 8fcf 103e 24de 24be
00000150: 44ad 8e3d d0e9 3abe f312 5c3e 525f efbd
00000160: 335b 0abe 56a7 87bd 7306 923d 3a17 0e3e
00000170: d9a1 943d e7f1 59bd 5258 023e 9643 2fbd
00000180: fdf9 64be 3638 cfbc c5ac c4bd a17c 143e
00000190: f1ca 833e 9650 f23d 4990 fcbc 5522 babd
000001a0: 05c0 ab3e b0a4 ec3c 4687 123e a957 84bc
000001b0: 4363 08be 3756 45be f72b 13bd 0667 38be
000001c0: bfc9 cbbc 2e60 dcbb e2d2 6c3e c108 113d
000001d0: c89b d23d 86d8 34bd 01c1 c1bd 32d6 843e
000001e0: a015 a7bd 3e02 20be 27c5 67bd 3b0f c33d
000001f0: 6966 98bd 736a e9bc b5ba 173e 0d72 4dbd
00000200: 2ada 8b3d cb44 1abe 959a 933d 5241 053e
00000210: 2ac0 a0bd 5781 babd ebcb 4ebe e173 f83d
00000220: cbc2 5ebd ea7c 313d 4fa4 97bc 0942 8bbd
00000230: 4322 e6bd 80c2 81be 7830 5f3d 2a0d 2bbb
00000240: d687 403d 5a04 b4be be33 80be 7ceb abbd
00000250: 4ce1 603c bd91 28bd 4221 7a3d 10df 5c3e
00000260: ecb1 2c3e 528c 3b3e 0275 603d 33e2 533e
00000270: 8ec4 fdbd 4f8a 8dbd 8b28 48bc 8468 ac3d
00000280: a2ce 04bc c337 813e 28a8 db3d bd07 bebd
00000290: 5ee7 7abd 5f24 c63c 3d10 02bd 3ffb 28be
000002a0: 45dd d9bd 0b94 023d 791b 513e 56d1 20be
000002b0: ab15 75bd 9709 bfbd 7040 0ebe 2448 50be
000002c0: 7f6d 8ebd b85a 5cbd 88f5 0b3e 129d 29bc
000002d0: 9c20 b23c e9f7 323d d59a 493d af27 ff3d
000002e0: 2c88 41bd 4d05 643d a7b9 973d 9bf3 093d
000002f0: 7078 243c d8c9 09be a0f7 273e 91dd a8bd
00000300: 5434 d93c b19c 8a3c affb 843d 90ab 943d
00000310: ced1 823e d319 f3bd c096 933d daa3 13be
00000320: 55c7 7bbd 8d2b f13e bdc3 8b3d b263 1c3e
00000330: 5d95 8b3d 01c3 5a3d 8db3 3f3e 360f b9bd
00000340: b5a2 9d3d cae0 9a3d 9a59 9d3d 234a 063d
00000350: d3b3 89bd 2bcb af3d 6119 f6bd d653 51bd
00000360: 9499 1bbe 8cb1 e23c 8e14 dfbb 4f80 d83d
00000370: e2b3 253e 0804 b73c 7a9b 0abe 91d8 04bd
00000380: 1616 2abe 2200 903d e3cf ca3d c074 66bc
00000390: 77ef 233e ff1e 203d d366 61bc a7a8 55bd
000003a0: b4ec adbb a0a4 633e ac79 d8be 26fc 283d
000003b0: 576c a8bd c7da 44be eb1e 693e df20 813b
000003c0: 3d94 c4bd e819 e2bd b562 9ebd 42ef 633d
000003d0: 9e98 453b 821c b03d 4bb8 233e b8f1 3b3e
000003e0: 2d2a 37be 04f1 873d b556 b13e 62df 123e
000003f0: 78b9 cbbd 4693 d1bd 6056 a63d 9702 a13d
0.14160576 0.18954863 -0.2129038 -0.036332045 0.027072694 -0.048148274 0.1710987 0.111919686
0.009909946 -0.156839 -0.05633226 0.12585832 -0.056206204 0.028950144 -0.04755257 0.033717822
-0.05543022 0.031748798 -0.074824505 0.114114836 -0.09227512 -0.054633994 -0.028421002 -0.20901516
-0.15759161 0.2631311 -0.06815229 0.049916506 0.15100515 0.19120368 -0.02882187 -0.05354132
0.14652489 0.058274467 0.13388212 0.116327435 -0.34783494 -0.12356891 -0.08318543 0.23890528
0.072574586 0.06438475 -0.11482371 0.0652305 0.022176526 0.20366238 0.107402496 0.13718583
0.07079885 0.21127126 0.13845563 -0.038659856 0.14588849 0.13024041 -0.10144194 0.073490426
0.15815154 0.05669865 0.2024481 -0.11156993 0.10022929 -0.15920158 -0.23689748 -0.016245063
-0.028501578 -0.0635847 -0.1983769 0.043624938 0.097916126 -0.065993465 0.1277509 -0.0043554464
-0.082770444 -0.19674642 -0.09620004 -0.19972613 0.11829422 0.03728987 -0.09457494 -0.05222847
0.011137673 0.0572449 0.14141677 -0.16100365 0.069666415 -0.18253255 0.21491604 -0.11688103
-0.13511352 -0.06623714 0.07130136 0.13876048 0.072574325 -0.05320921 0.12729004 -0.042789064
-0.22360988 -0.025295358 -0.09603266 0.14500667 0.2574077 0.11831777 -0.03083052 -0.090885796
0.33544937 0.028887123 0.14309415 -0.01615508 -0.13319115 -0.1927117 -0.0359306 -0.1800805
-0.024876473 -0.0067253327 0.2312732 0.03540874 0.10283619 -0.044151805 -0.09460641 0.25944668
-0.081584215 -0.15625855 -0.056584504 0.09524389 -0.07441408 -0.028493142 0.14817317 -0.050157595
0.06828721 -0.15065305 0.072072186 0.13013199 -0.078491524 -0.09106701 -0.20194976 0.12131477
-0.054384988 0.043332018 -0.018510966 -0.067997046 -0.11237004 -0.25343704 0.054489583 -0.0026100376
0.047004543 -0.3515957 -0.25039476 -0.083945245 0.01372559 -0.04115461 0.061066873 0.21569467
0.16864747 0.18315247 0.054799087 0.20691757 -0.123910055 -0.06911146 -0.012216697 0.08418372
-0.008105906 0.25237855 0.10725433 -0.0927882 -0.061255805 0.024187265 -0.031753767 -0.16502093
-0.10637907 0.031879466 0.20420636 -0.15704855 -0.059835117 -0.09328001 -0.13891768 -0.2034002
-0.069544785 -0.053797454 0.13667881 -0.01035239 0.021744065 0.043693457 0.049219925 0.12458741
-0.047249004 0.055669118 0.07408457 0.033679586 0.01003848 -0.13455904 0.16403055 -0.082453854
0.02651421 0.01692042 0.06493317 0.072592854 0.25550693 -0.1187016 0.07206488 -0.14417973
-0.061469395 0.4710354 0.068244435 0.15272406 0.06815598 0.053408626 0.18720837 -0.090361044
0.076970495 0.07562406 0.07683106 0.032785546 -0.06723752 0.08583673 -0.120165594 -0.051105343
-0.15195304 0.027672552 -0.00680787 0.10571348 0.16181901 0.02234079 -0.13535872 -0.032433096
-0.16609988 0.07031275 0.099029325 -0.014065921 0.16009317 0.03909206 -0.013757425 -0.052162793
-0.005307758 0.22230768 -0.42280328 0.041256092 -0.08223789 -0.19224082 0.227657 0.003940686
-0.09598587 -0.110400975 -0.077336706 0.055648096 0.0030150781 0.085991874 0.15988271 0.18353927
-0.17887183 0.06637767 0.34636465 0.14343026 -0.09947485 -0.10233168 0.081219435 0.07861822

weight f4 [169, 339]
00000000: fc05 8cbd fc9c 673d dd87 66bc 2c74 87bd
00000010: 6374 e5bd 1b86 e03c b109 02bd f811 a2bd
00000020: ed00 1bbe 2309 4d3d e0c8 c0bb 8346 0abe
00000030: a872 27be 18cc b03d 6c2c 18bd 79c4 cabd
00000040: d324 333d 9acd 81bd acd4 aa3c 04b2 a2bd
00000050: dff0 aabb 8552 dfbd b8a1 9fbd bb46 b4bc
00000060: 6b52 823d 47ae 88bd f363 3b3d 1e54 3a3c
00000070: 2edc 0dbb 86fd c6bd ec09 873e 6a9c e5bd
00000080: 305f 0dbc 3d01 cc3d 27b6 a83b 17d2 ae3d
00000090: 866e bbbc 833e 353d d08e 82bc ff8b 98bd
000000a0: 7926 19be 37cc aa3c fb9a 93bd 55a7 943e
000000b0: 96a3 8b3b dc6d 3dbd e307 84bc 83cc aebd
000000c0: 71f4 d53d 4aa3 7a3d c346 f23c be26 c1bc
000000d0: 3e4e 0e3b 1219 e5bd 7540 bfbc 7d5d 58bd
000000e0: 5137 3b3d 8727 05bc 3137 2ebe ef50 35be
000000f0: 0d5b d1bd c642 1639 e18b 1dbd 57c6 9d3e
00000100: 23c0 c2bd 8795 493a c1db 503d a67e b83c
00000110: be7b 14bd e0da 9ebd 13fa e1ba 1e95 a73d
00000120: 0cfc 1e3d 5b90 a4bd 509c a1bd 4e99 f33c
00000130: a727 063c abdc 59bd 7efe d2bd 5dbc 5d3e
00000140: 7594 3e3e 927d adbd 46c1 fdbd 5af1 aabd
00000150: d93f fbbd 8a40 00be e2e1 61bc e1dc e8bc
00000160: 0572 993b 73c9 5c3d 2713 233d f1c9 19bd
00000170: 60d0 bf39 1cd0 953e 005f 98bc c46a 333d
00000180: c67d 3fbd bffb 47bd 1f1c 8ebd 330b 953a
00000190: 3c03 04bd da80 6ebc 376a fcbb 63e2 34bc
000001a0: 0e61 e6bc 777d 03be 7fb1 22bd dac8 febc
000001b0: 29c2 d7bd 0768 3c3d ff58 1cbd b9e5 783e
000001c0: 8a91 8f3c 24c1 d9bd 640a 15bd 3602 36bd
000001d0: b5cf 933a efe4 71bd b291 ec3d e669 183c
000001e0: 3f02 e03c eee3 cebb 58d8 71bd 0dac 35bd
000001f0: 9a14 1f3e 2db2 94bd b979 853d e87f 64be
00000200: 68e3 59bd fed5 30ba 7080 39be 688a a23d
00000210: 1136 d5bc 32a7 873e abba 493c 34df 67bc
00000220: d4a9 4a3d 2550 8dbd 9f81 9fbd 155f 26bd
00000230: 76c8 973d 9631 b03c 4ece 2b3e 930d 23bd
00000240: 5457 9c3a 97e3 a9bc c91a cf39 d68e 7bbd
00000250: fb90 a83b 5b1c 1bbe 1037 b53b b876 e1bd
00000260: ac98 f8bc c88a 82bd 38c3 79bd a2df 743e
00000270: 9a3e 9abd b9c6 c1bd 2250 71bb bab7 5abe
00000280: 1e11 463c 365f b5bc 5a08 3cbe b58f 90bd
00000290: ad9c a53d 669c 86bd b085 39bb 18fd c8bc
000002a0: b9c9 143d 2c69 0bbe f31d d4bd 9110 583e
000002b0: ff66 a13d b432 a7bd 0bd7 21bd 5c11 983d
000002c0: 4d89 c0bc 383d c6bd aa91 b7bd c046 963e
000002d0: aef6 c0bd 98db a0bb bdef 92bc af12 6bbd
000002e0: 0e4c 463d 0b07 70bd b40a 1abc 8d3e b8bd
000002f0: 8ca8 63bc 2716 4fbd 7766 0fbe ec2e 1bbd
00000300: afd0 d2bc e93c 4b3d 4e69 8dbd f45c 333d
00000310: f28d 86bc 855f 723c 5779 83bd ab5d b2bd
00000320: c36c fdbb 04ff 7ebd 337a f6ba 5344 f7bc
00000330: 0d6c 02bd 14e6 58be 7f40 423c 599c 86bc
00000340: 6bb1 44bd 1c08 ef3d dfa2 a23b 8ff0 143d
00000350: 8f6b 0dbc 112f 37bd 3d5b 223d 6edf 97bb
00000360: 91fe c9bb 2420 2cbd d7b3 a1bd fde7 333c
00000370: 68cf cdbb 48ae dcbd ea86 d4bc 1883 88bd
00000380: 172e 65bd 1f51 523d 941f 21be 00ce 25bd
00000390: 801e 54bd 3629 823e d8ac 5f3d a371 a5bc
000003a0: 0217 a03c 2b34 99bd 90a6 c53d d995 adbd
000003b0: 0120 91bd 40ac 45bd 691c 8eba 3429 fabd
000003c0: ad9c 50be ba18 9f3c 6bc9 1c3c 472b e0bd
000003d0: 0fb5 0fbd 704d 02be 4367 acbd 33c0 ee3d
000003e0: 6b37 253b 5e6e d8bd 35a3 2abd cbb8 54bd
000003f0: b2fd 213c 33e1 923e 1fed 923d b885 b1bd
-0.06837079 0.056546196 -0.014070478 -0.06613955 -0.1120384 0.027407696 -0.031747524 -0.079135835
-0.15137072 0.05005754 -0.005883321 -0.1350346 -0.16352332 0.08632678 -0.03715174 -0.099007554
0.04373629 -0.063380435 0.020853363 -0.0794411 -0.0052167024 -0.10904411 -0.07794517 -0.022006383
0.06363376 -0.06673866 0.045749616 0.011372594 -0.002164613 -0.097163245 0.26374757 -0.11211474
-0.0086286515 0.09961174 0.0051486674 0.08536165 -0.02287985 0.04424907 -0.015937239 -0.07448577
-0.14956082 0.02084933 -0.072072946 0.29033914 0.0042614443 -0.04624735 -0.016117042 -0.08535101
0.10447014 0.06119088 0.029574757 -0.023578044 0.0021714116 -0.111864224 -0.023346165 -0.052823532
0.04570705 -0.0081271 -0.17013241 -0.17706655 -0.10222445 0.0001432999 -0.038463477 0.30815384
-0.095093034 0.0007689823 0.050990824 0.022521328 -0.036250822 -0.07756591 -0.0017240666 0.08182739
0.03881459 -0.08035346 -0.07891142 0.029736187 0.008188165 -0.05318896 -0.10302447 0.21653886
0.1861132 -0.08471216 -0.123903796 -0.083468154 -0.12268037 -0.1252462 -0.013786765 -0.028425636
0.0046827816 0.053903054 0.039813187 -0.037546102 0.0003658561 0.29260337 -0.018599987 0.04380299
-0.046750806 -0.04882407 -0.069389574 0.0011371135 -0.032229647 -0.014557088 -0.0077030915 -0.011040303
-0.028122451 -0.1284083 -0.039720055 -0.031101633 -0.1053508 0.045997646 -0.03817081 0.24306382
0.017525453 -0.10632542 -0.036386862 -0.044435702 0.0011277111 -0.05905622 0.11551227 0.009302592
0.027344821 -0.0063137924 -0.059044212 -0.044353534 0.15535203 -0.07260547 0.065173574 -0.22314417
-0.053195387 -0.00067457545 -0.18115401 0.07936555 -0.026026757 0.26494747 0.0123125715 -0.014152337
0.049478367 -0.06900052 -0.07788395 -0.04061802 0.07411282 0.02150802 0.16777918 -0.039807867
0.0011927881 -0.020738406 0.00039502073 -0.061415516 0.005144236 -0.15147536 0.0055302456 -0.11008972
-0.030346237 -0.06374127 -0.06097719 0.23913434 -0.075314716 -0.094617315 -0.0036821445 -0.21359149
0.012089042 -0.022140127 -0.18362561 -0.0705866 0.08086524 -0.065727994 -0.0028308444 -0.024534747
0.03632519 -0.13614339 -0.10357275 0.2110007 0.07880973 -0.08163968 -0.03951172 0.07425186
-0.02350297 -0.09679645 -0.0896333 0.29350853 -0.094220504 -0.00490899 -0.017936582 -0.057390865
0.048412375 -0.058600467 -0.009401966 -0.089963056 -0.013895165 -0.050558235 -0.14003931 -0.037886545
-0.025734274 0.049618635 -0.06904851 0.04378982 -0.016425107 0.014793281 -0.06419628 -0.08709272
-0.0077339127 -0.06225492 -0.0018804729 -0.030183947 -0.031841327 -0.21181518 0.011856197 -0.016431974
-0.04802076 0.116714686 0.0049632634 0.036362227 -0.008631601 -0.04472262 0.039637793 -0.004634789
-0.00616438 -0.04202284 -0.0789563 0.010980603 -0.0062808283 -0.10775429 -0.025943238 -0.06665629
-0.055952158 0.051346894 -0.15734702 -0.04047966 -0.0517869 0.25422066 0.054608196 -0.020195788
0.019542221 -0.074806534 0.0965091 -0.08475847 -0.070861824 -0.048259974 -0.0010842207 -0.1221489
-0.20372267 0.01942097 0.009569506 -0.109457545 -0.03508478 -0.12724853 -0.08418133 0.11657753
0.0025210034 -0.10567926 -0.041659553 -0.051934045 0.009887146 0.28687438 0.071741335 -0.08668083

bias f4 [169]
00000000: a90b 57bd f7be b8bb 9cf9 d33a bab2 2b3e
00000010: 2aec 3a3e 31cf 2b3e 3a94 443e 0128 913d
00000020: df85 cfbd baff 38bd c629 df3a 1187 a43d
00000030: f170 84bd 39c2 7cbe fef6 31be dd96 97bd
00000040: 6b62 b83e 8642 9a3e 3154 9bbc 0d8b 383e
00000050: 6cb3 f4bd ffc9 443c 0971 4abe 63bc 2f3d
00000060: 0e8b b53b e287 14be f8f4 8bbd 8155 d6bc
00000070: fc7f 8abd 40e7 3f3c 6aef 853b 3cad c4bc
00000080: 6a65 2f3c ff93 ca3c f224 2dbd 7a5c 06be
00000090: 5021 24bd 59cb 1abe de92 08be b1ff 393e
000000a0: b23a 75bb a6bb c13d 11a8 c5bd 7044 2e3e
000000b0: 5162 80be 3827 6c3e 6d68 87bd 92ec 13bd
000000c0: d94e 133e 7100 38ba 1409 d83d e384 85ba
000000d0: 16b6 afbd a1a7 a0bb f23b 7a3c a9ba c7bc
000000e0: 46e0 16bd 3bd2 ab3e 9d6d 47bd 1427 5d3e
000000f0: e26b 34bd 090f fb3e a39e 943c a779 023e
00000100: 3b29 96bd 9b7b 413e a489 c03e b222 a3bd
00000110: aac8 d43d e119 31bd cb40 823c 587f a2bc
00000120: 4dad 07be d34b c6b9 95ae 1dbd 5cdd 07bd
00000130: 7d65 0b3c e114 69bc 0b04 82bc 9193 b83e
00000140: cfa6 21ba acff 9bbc 71c3 093e 8b06 a33e
00000150: eab2 31bd 227d f83c 6661 e6bd 9437 9bbd
00000160: 3310 68bd 04f7 3b3d b9a6 e93d 51b7 6ebe
00000170: ca6a d23c 3466 61be 9fe6 97bd 8fee e4bd
00000180: 6b80 213e 8fb7 f63d 8380 c73b 5885 d03e
00000190: 764a 813e 6853 bfbd 0e83 75bd 6732 58bd
000001a0: 937b 7cbd 1e64 9fbd 465d 8fbd 996e e8bd
000001b0: be46 07bd 3f07 87bc 11fa cdbd 53db 4abc
000001c0: fdcc 713e 376c 1f3d 946c 56bc a18d 27bd
000001d0: 7471 383e 4175 943c c0da 98bc 203c efbc
000001e0: 9d3a 1f3d 9ff0 143e e056 73bd 97f4 5ebd
000001f0: e649 a43d e700 b63e c12d 8abd 87bc 8d3e
00000200: 3c67 2cbd 4621 403e efb7 333c afe3 73bd
00000210: 43e3 da3e 3e1e 9abc 72c2 753e 6b54 b1bd
00000220: 3668 073e 4e9e bdbc ccbb 833e be53 9abc
00000230: dcec 86bd 55c8 5fbd 61f9 4b3e 55d6 9d3b
00000240: c005 45bb b16c 1f3e 4ace 76bd 281b 7dbd
00000250: 75ef c43e 7ec9 f7bc 0b3c 313e 6a7c 64bd
00000260: e785 803e ad92 5e3e 8a38 f63b 0ccb 35bc
00000270: 0b23 cebd eadc a73d e1c2 583e 941a f53d
00000280: 9280 e0bd b049 b2bb f153 9b3e 44b5 fb3d
00000290: bb62 fbbd e967 27bd 035b 07bd eb27 44be
000002a0: f01b 873e
-0.052501354 -0.005637999 0.0016172412 0.16767398 0.18254152 0.16778256 0.19197169 0.07087708
-0.10132956 -0.045165755 0.0017025999 0.080335744 -0.06466854 -0.24683465 -0.17379376 -0.07401822
0.36012587 0.30128878 -0.018961044 0.18021794 -0.119482845 0.01201105 -0.19769682 0.04290427
0.0055402583 -0.1450496 -0.068338335 -0.026163818 -0.06762692 0.011712849 0.0040873783 -0.024008386
0.010705331 0.024728773 -0.042271562 -0.13121215 -0.04007083 -0.15116633 -0.13337275 0.18163945
-0.0037419018 0.09459619 -0.09651197 0.17018294 -0.2507501 0.23061836 -0.066117145 -0.036114283
0.14385547 -0.0007019109 0.105486065 -0.0010186698 -0.08579652 -0.0049027954 0.015273081 -0.024380999
-0.036834978 0.3355883 -0.04868852 0.21596938 -0.044048198 0.49034908 0.01814205 0.12741719
-0.07332083 0.18894808 0.3760501 -0.07965602 0.10389836 -0.04323757 0.015900036 -0.019836113
-0.13249703 -0.00037821996 -0.038496573 -0.03317009 0.008508083 -0.014226169 -0.015871068 0.36050084
-0.0006166519 -0.019042812 0.13453461 0.3184093 -0.043383516 0.030333105 -0.11249046 -0.0757896
-0.056656074 0.04588987 0.11408753 -0.23312117 0.025685687 -0.22011644 -0.07417034 -0.11178314
0.15771644 0.1204673 0.006088318 0.40726733 0.25252122 -0.0934208 -0.059939437 -0.052782442
-0.061641287 -0.07782768 -0.07000212 -0.1134922 -0.03302645 -0.016482947 -0.10057462 -0.0123813925
0.23613353 0.03892156 -0.0130874105 -0.040906552 0.18012029 0.018122317 -0.018658996 -0.029203475
0.038874257 0.14544915 -0.059409022 -0.054432478 0.080219075 0.35547563 -0.06747008 0.27682897
-0.04209064 0.18762693 0.010969146 -0.059543308 0.42751512 -0.018813249 0.23999956 -0.086586796
0.13223347 -0.023146775 0.25729215 -0.01883876 -0.06588146 -0.05463441 0.19919349 0.00481681
-0.0030063242 0.15568806 -0.060255326 -0.061793476 0.3846394 -0.030247446 0.17308061 -0.055782713
0.2510216 0.2173564 0.007514064 -0.011095773 -0.10065278 0.08196433 0.2116809 0.1196796
-0.10962023 -0.005440913 0.3033748 0.12290433 -0.12274691 -0.04087058 -0.03304578 -0.19155852
0.26388502

weight f4 [2, 169]
00000000: 41a7 81bd b552 0d3d 2ce0 493d e732 a33d
00000010: 86df 703d 33de 7c3d 6e13 053d e38f d83d
00000020: 6a47 2bbd 41d3 3b3d a59f 4d3b b281 03be
00000030: b605 1d3d c6b4 4a3d 0a92 0fbe 08fe 873c
00000040: 03d2 dd3c e470 8c3c e0a9 ab3d d932 633d
00000050: 43fc 25bd e4ef 71bc a5c5 0d3e 378e f43b
00000060: ac1d b53b d3a8 0cbd fe87 a63d 1d14 183e
00000070: cde4 8f3d cf0f ee3d d770 803c b52a 253d
00000080: 1614 493d 6e6e 483c c376 fd3d 085b b8be
00000090: 9dbb be3d afa9 b0bd b2c2 b23d fa00 a03d
000000a0: 0640 843d b3f5 b23d 6eff 473d 0b96 05be
000000b0: 435d d7be 00ed e23d 03f6 bb3d 8f66 103d
000000c0: cc76 f8bd 7455 313d ee26 d2bd 6102 c13d
000000d0: 0920 c83d c929 0f3d c7b7 4d3e d4ba cd3d
000000e0: 3ac2 043e b97a 5c3c ef24 37be 9bf8 d13d
000000f0: cd68 423c 0564 2d3e 1328 cf3c e33a acbd
00000100: ec6a 063d 3b2f f83d 68f3 e93c c3c5 c3bb
00000110: ccb9 ffbd 9c8a 37bb 75d7 493c 01d0 01bc
00000120: 69f8 bc3d bcad ea3c 448c d73c d463 b53c
00000130: 57b6 403d 31e5 293d 4358 4d3d 5dc0 873d
00000140: b5f3 ec3c c72a 3c3c 25bd 213a 681f 743e
00000150: 4e4f cd3d 025f 083d adde 333d 24ea f83c
00000160: 08d7 203d 7137 7f3b 7785 d7bd d3ca 82be
00000170: 79c3 97bc 0be8 b53d c6c1 3d3d 316a 84bc
00000180: a58a f2bd d4d7 d0bd 31bc f63c da02 423d
00000190: 51ad 983c d97c 043b 52f0 123c 7d88 083d
000001a0: d039 423d 6363 cdbc 7210 6c3d 54b3 843d
000001b0: 2e41 28be d080 0b3d a83e c9bc b94e 203d
000001c0: 01ca 183c 3a09 8b3c 6fac ad3c cccb de3d
000001d0: b770 c7bd 8f61 0c3e 9cd5 363e 0844 233e
000001e0: 0ef1 0a3d 14a7 893d b07a d43d ccf1 0d3d
000001f0: 603f f53a dff5 a6bb 77e3 25be 87ea 543e
00000200: 3325 0abd 782c 1d3c a796 a63d a496 8abc
00000210: e406 853e f2cc 663d 654d 4a3c e6a6 4e3d
00000220: f34c 66bc 7d42 103e 1bea 243e 84e9 763e
00000230: 9f91 ebbd e570 323c b5a8 1f3d 82dd 303d
00000240: c821 3c3a 0acc d8bd 17fb 843d 3dee a63d
00000250: 03b1 b83c 364a d33c e945 f7bd a098 cd3c
00000260: ad32 123b 6813 f23b 3d22 f03b 3029 513d
00000270: eee8 2f3d 1085 ccbd fc67 16be d0fd 06be
00000280: 4de3 cdbb c9f7 d7bb cc3d ef3d 4da6 9fbb
00000290: 2311 53be 5d0c 4a3d cf0a 183b 2787 713e
000002a0: b23d 6e3e c85c a93d 8efb 41be e9d4 eabc
000002b0: e8d1 58be 395f b2be d238 c9be 96f9 94be
000002c0: da9e 3dbd b9ae 863d 9887 c9bc e193 bfbc
000002d0: 60a5 f7bd b179 98bc ea94 3e3e 9a83 e83d
000002e0: 8154 333d 7446 bbbe 69a0 86be 0d7d 313d
000002f0: 28eb 7ebe 12ae ce3d 97ca cd3d 9348 0b3e
00000300: 2359 29be b0df b83d 2485 133e 7687 003c
00000310: 3f66 763c 414c 9e3c 3c52 74ba 4ab1 cdbd
00000320: 2fad 02bd 40fa bfbd 1c00 35be d0e5 fd3c
00000330: d737 7b3e fb4b b83d 21b5 713e 7a89 633d
00000340: af95 b9be 1364 d03c 6293 96be 07ef 4d3e
00000350: 3743 e1bd ede0 cb3d c3fb f1bd b7e8 323c
00000360: d582 213d a71e 9dbd dff8 f5bc 697c c6bd
00000370: 56e9 213d 3880 433e 4070 cfbc 48ff f23c
00000380: 13ff 04be 8276 5e3d 09e3 c0be 67a0 033e
00000390: 69cf 79be 7085 30bc f0b6 78be 46f5 d03c
000003a0: e097 96bd c249 90ba c3d4 dfbd 2b8e 9ebe
000003b0: b81c 83bb 6dc2 debd 2546 75bd 9bc7 a73a
000003c0: 88eb aeb9 b57f c93d f292 e5bc e918 153d
000003d0: b238 003c f9af 02bc a89b f4bc a023 3c3c
000003e0: f07a 93be aec9 e0bd 5b0a 5a3c 4c93 4fbe
000003f0: a462 85be 411c 823c 0105 b33d 6618 f93d
-0.06330729 0.034502704 0.049286053 0.07968693 0.05880692 0.061735343 0.032489233 0.10574319
-0.041816153 0.045855764 0.0031375673 -0.12842444 0.038335524 0.049488805 -0.14020553 0.016600624
0.02707768 0.017143674 0.083820105 0.055468414 -0.04052378 -0.014766667 0.13844927 0.0074632424
0.005527219 -0.03434069 0.08131407 0.14851423 0.07026062 0.11624109 0.015678806 0.04032393
0.04909142 0.01223336 0.123761676 -0.3600695 0.09313128 -0.086261146 0.087285414 0.07812686
0.06457524 0.0873827 0.04882758 -0.13045518 -0.4206334 0.110803604 0.091777824 0.035254057
-0.12132034 0.043294385 -0.102613315 0.09424282 0.09771735 0.03495196 0.20089637 0.100454
0.12964717 0.013456994 -0.17885183 0.10252496 0.011865807 0.16932686 0.025287664 -0.08409669
0.032816812 0.121183835 0.028558448 -0.005974503 -0.1248661 -0.0028006202 0.012319435 -0.007923127
0.09227068 0.028647296 0.026312001 0.022142328 0.047048893 0.04147834 0.050133 0.06628487
0.028924802 0.011484808 0.00061698473 0.23840106 0.10024892 0.03329373 0.043913532 0.030385084
0.03926757 0.0038942958 -0.10523503 -0.25545368 -0.018525826 0.08882149 0.046327375 -0.016163917
-0.118428506 -0.10197416 0.030119034 0.047366 0.018637331 0.0020216017 0.00896843 0.03333329
0.047418416 -0.025071805 0.05763287 0.064795166 -0.16431114 0.034058392 -0.02456601 0.039137576
0.009325505 0.016972173 0.021200387 0.10878715 -0.097382955 0.1370909 0.17854923 0.1594392
0.033921294 0.06721321 0.10374963 0.034654424 0.0018710904 -0.005095228 -0.16200052 0.2079259
-0.033726882 0.009593122 0.081342034 -0.016917534 0.2598182 0.056347795 0.012347554 0.050452136
-0.014056432 0.14087863 0.16104929 0.24112517 -0.115023844 0.010891174 0.03897925 0.043179996
0.00071766647 -0.10585792 0.06493204 0.08150909 0.022545343 0.025792222 -0.12073881 0.025097191
0.0022308037 0.0073875673 0.0073283003 0.05106467 0.04294675 -0.09986317 -0.14688104 -0.1318276
-0.0062832 -0.0065908176 0.11681709 -0.0048721195 -0.20612006 0.049328197 0.0023199802 0.23586713
0.23265722 0.0826965 -0.18943617 -0.028665977 -0.21173823 -0.34838274 -0.39301163 -0.2909667
-0.04629407 0.065762945 -0.024600789 -0.023385944 -0.1209209 -0.018612714 0.18611494 0.11353226
0.04378176 -0.3657719 -0.26294258 0.04333215 -0.24894392 0.10091795 0.100484066 0.13601904
-0.16537909 0.0902704 0.14406258 0.007844796 0.015039026 0.01932347 -0.0009320115 -0.10043581
-0.031903442 -0.09373903 -0.17675823 0.030993372 0.2453302 0.08998867 0.23604251 0.05555103
-0.36247012 0.025438344 -0.2940932 0.20110713 -0.10999148 0.099550106 -0.11815598 0.010919741
0.03943141 -0.07671862 -0.030025898 -0.09691698 0.039529167 0.1909188 -0.02532208 0.029662743
-0.12987928 0.054312237 -0.37673214 0.12854157 -0.24395527 -0.0107740015 -0.24288535 0.02550758
-0.073531866 -0.001100831 -0.10929253 -0.3096784 -0.0040012263 -0.108769275 -0.05988135 0.0012800576
-0.0003336335 0.09838811 -0.02802417 0.03640071 0.007826017 -0.007976525 -0.029859379 0.011483103
-0.2880473 -0.10975967 0.013308133 -0.20271033 -0.2605182 0.015882613 0.08741189 0.12162857

bias f4 [2]
00000000: b701 bcbb 4f07 1dbe
-0.005737509 -0.1533482
